network.pth (torch, 140047 bytes, 8 tensors)

fc.0.weight f4 [128, 6]
00000000: bdee b63e 75cb cdbb d6aa af3e 8df9 893d
00000010: 8422 f3bc 899b 3cbe dd1f 36bd d4ce 883d
00000020: 7722 6cbe 3c80 b73e e886 b9be a07b d5bc
00000030: 3d32 72be 36d6 88be 8457 b7be fdd4 893e
00000040: 0599 19bd 46e0 1e3e e0c0 c93d f671 1cbf
00000050: 9e47 24be 20a5 dfbe 97f5 71be 8254 bdbe
00000060: 7d05 8b3e 01ba 16bf 0aae 863e e40e dc3e
00000070: b42e cabd 50cc b63c 450f 123f 7e2d 0abf
00000080: 58ba f0bd beb2 f3be 93f3 86bd a777 25be
00000090: e369 34be be2a 6f3e 3b9e 10be ab4b 96be
000000a0: f4c3 353e bea7 b2be 489b a8be 76d7 c7be
000000b0: f85f 55be 7e3e bc3b b59d 483e ae4e 023e
000000c0: 47f7 713e 13f1 bfbd 5c91 803e ff41 75be
000000d0: a584 f83c 532a a23e 2b1f 9e3d 9fdc 24bf
000000e0: fe84 2d3e 8375 f1bc 5f96 2abf 90a9 3dbe
000000f0: 80dc aebe 9722 02bc d18e 523e 5b3e 83be
00000100: 98d9 8b3e 1b0c 6f3e 8fff 3d3e dbf3 98be
00000110: 7b58 9bbd 97f4 cdbe 9d81 3bbf e35a 8bbe
00000120: 18b8 663e 3bb0 3abd b03c 50be 2c80 f2bd
00000130: af39 cf3e 5fa9 f53d 88a3 b23e 88f9 873e
00000140: 21ee 2f3d 95b4 783d e5c4 8d3e aa80 e3be
00000150: 66b3 263d d71b 0fbf fdc1 963d 7932 943e
00000160: 2597 cebe fa41 343e 9e09 48be 0500 b6be
00000170: ee45 473d f91d 77be ceeb 64be 9a1e 28be
00000180: 69bd 08bf 170c c03d 3caf 843e 9436 553e
00000190: 723d 21be 8709 37be 815a fe3d 12b9 6ebe
000001a0: 7319 fc3e 7e4c cdbd 8d2c 04be f649 953e
000001b0: ce7a b93e 303a 19be 93fe d43e a350 bb3d
000001c0: ac60 51be af3c 2dbe f7a8 e7be ea74 d8be
000001d0: ed22 5a3e 8254 22be 028c 85be c6ea 10be
000001e0: 1bda 9dbe 8c88 85be 2feb b0be 1143 403d
000001f0: bbfa 983e 288c 9abd 79cb bfbe b734 0cbf
00000200: 9281 6bbe db3f 963e c75b 8bbd 75f7 293e
00000210: efcc f9be 6636 95be c560 bcbe a71c 24bb
00000220: 59fa eabd 1785 a83e ae6d 003f 78c3 fd3d
00000230: 8d4e c53d 5780 063d 3ede cc3e ae79 96be
00000240: 3be9 d33d 72c2 163e 969a 9e3e 0d7f bb3e
00000250: 316e 81be a413 b93e 9d45 133e 9cdf eabe
00000260: 2bc1 0b3d ade4 74be b0ca f4be feca 723e
00000270: 978b c83c 9085 823e 78cb 30be 4ba3 413e
00000280: 3e70 ae3e 702d 3c3d 865a af3e f17d b93e
00000290: 7c96 d0be 7cc7 d53b fbb8 ad3d f261 cabe
000002a0: 18c7 2e3e 496b 1b3e 062a b9be 011c 25be
000002b0: d9f0 313e 1944 7ebe 8875 95be 6754 cdbe
000002c0: 0b1c 863d 12a3 bb3e 67d1 8dbe c4c9 14bd
000002d0: 219f 9b3e 1328 963e 277c 8e3e 842b ce3d
000002e0: 6556 00bd 27ac 3c3d 4279 4bbe c465 d43d
000002f0: f8c5 143e ec90 c8be da1f d6be 66ed 11be
00000300: 30ff 5b3e 8bab 233e 4f31 eabe 6fb3 4e3e
00000310: 2c6b 23be 2d95 ccbe 2a88 933e 72cd 1d3e
00000320: 45f6 c03c 135e ca3d a2dc 4b3e 4fda 19be
00000330: 3158 323e 6730 da3e 06bb 013e 9e03 b93d
00000340: 2a44 bc3c 989d 983e 4616 133e f2a8 c5bd
00000350: f1e1 953e a838 bcbe bcd8 8dbe 33bb be3e
00000360: c41d 95be 984f 1cbe 3788 44be d7e8 d63d
00000370: 84d9 46be 1bf0 08be 6497 d3be 0a07 42be
00000380: 6bad da3c 4cac c43c 59d5 47bd 8c18 1cbe
00000390: 8ed2 4e3e ab7c cd3b 9213 90be 066b 2dbe
000003a0: b00f a53e c4ff 3f3e 539d a3be bba5 a5be
000003b0: 22f6 23be 74b2 7cbe 144b e8be 0a56 43be
000003c0: ff58 3b3e 743f a7be e887 2b3e f2ac d8be
000003d0: c53e acbe fbff c5bd cf6f d3be 91ea 99bc
000003e0: d292 5e3e e9ba 543e 91fa 9c3d ec2f 1b3c
000003f0: 3370 6b3e b92e 113f b3a0 b43d dfcd a2bd
0.35729018 -0.0062803575 0.34310025 0.06737051 -0.029679544 -0.18418707 -0.04446398 0.06680074
-0.23060022 0.35840023 -0.36235738 -0.026059926 -0.23651977 -0.2672593 -0.35808957 0.2692031
-0.037499446 0.15515241 0.09851241 -0.6111139 -0.16042945 -0.43680668 -0.23628841 -0.36978537
0.27152625 -0.5887757 0.26304656 0.4298011 -0.09872189 0.02231422 0.5705455 -0.53975666
-0.11754292 -0.47597307 -0.06589427 -0.16158925 -0.17618518 0.23356149 -0.1412286 -0.29354605
0.17750531 -0.34893602 -0.3293097 -0.3903157 -0.2083739 0.0057447543 0.1959141 0.12725326
0.23629485 -0.09372153 0.251109 -0.23950957 0.030336687 0.31672916 0.077207886 -0.6439914
0.16945264 -0.02947498 -0.666357 -0.18521714 -0.34152603 -0.007942817 0.20562293 -0.2563351
0.27314448 0.23344462 0.18554519 -0.29873547 -0.07585236 -0.4022567 -0.7324465 -0.2721778
0.22531164 -0.045578223 -0.2033565 -0.11840853 0.40473697 0.119951956 0.3489039 0.26557565
0.042951707 0.06071909 0.2768928 -0.444341 0.04069843 -0.55901855 0.07361219 0.28944758
-0.4034969 0.17603293 -0.19534919 -0.3554689 0.048650675 -0.24132527 -0.22355577 -0.16417924
-0.53414017 0.09377306 0.25914943 0.20821601 -0.15746096 -0.17874728 0.12419606 -0.23312786
0.49238166 -0.10024355 -0.1290762 0.2915799 0.36226505 -0.14963603 0.41600475 0.091462396
-0.20447034 -0.1691768 -0.45246097 -0.42276698 0.21302386 -0.1585255 -0.2608338 -0.14152059
-0.30830464 -0.2608074 -0.3455443 0.04693896 0.29878792 -0.07546264 -0.37459925 -0.54767936
-0.22998646 0.29345593 -0.068046145 0.16598304 -0.48789164 -0.29143065 -0.3679258 -0.0025041492
-0.11473531 0.3291404 0.5016736 0.12390798 0.09634123 0.03283724 0.40013307 -0.2938971
0.103472196 0.14722613 0.30977315 0.3662037 -0.25279382 0.36147797 0.14382024 -0.45873725
0.034119766 -0.23915358 -0.47810888 0.23710248 0.024480624 0.25492525 -0.17265117 0.18909948
0.3407001 0.04594177 0.3424875 0.36228898 -0.4073981 0.0065240245 0.08482548 -0.3952785
0.17068136 0.15177645 -0.36164874 -0.16123964 0.17377032 -0.24830665 -0.29191232 -0.40103456
0.065483175 0.3664785 -0.27698824 -0.03632523 0.30394843 0.2932745 0.27829096 0.10066894
-0.031332392 0.046062615 -0.19870475 0.10370973 0.14528644 -0.39173067 -0.41821176 -0.14250717
0.21484065 0.15983407 -0.45740744 0.20185636 -0.15958852 -0.39957562 0.28814822 0.15410402
0.02355493 0.098812245 0.19908383 -0.15024684 0.17416455 0.42615053 0.12669 0.09033893
0.022981722 0.29807734 0.14363965 -0.096513644 0.29273942 -0.36761975 -0.27704418 0.37252197
-0.29124272 -0.15264738 -0.19192587 0.104936294 -0.19418913 -0.13372843 -0.4132644 -0.18947998
0.02669402 0.024007939 -0.04878745 -0.15243739 0.20197508 0.006270965 -0.2813993 -0.16935357
0.3223853 0.1874991 -0.31955966 -0.32353005 -0.16011861 -0.2467745 -0.4536978 -0.1907579
0.18295668 -0.32665598 0.16751063 -0.42319447 -0.3364164 -0.09667965 -0.4129624 -0.018788608
0.21735695 0.20774426 0.07664979 0.009471875 0.2299202 0.5671192 0.088197134 -0.07949423

fc.0.bias f4 [128]
00000000: a70b 94be 7fd4 f13e 2f68 9cbe 7cef b73e
00000010: 4cd4 aebd 8dd6 e3bd 41d1 d3be e2ee a23e
00000020: 8ca9 b1be 6d31 1f3f a4ec 2cbe 2eb3 a33e
00000030: b99b e6bd c71d b4be 25f0 d73e cc55 ddbd
00000040: 3ee2 afbe 0aea 8cbd 19c4 8cbe ac13 6ebe
00000050: e30e cc3e 3a90 babe eaf5 813c 37e3 a63e
00000060: 42b1 a9be 9d1b 123e a5ee 06be d587 6e3d
00000070: 316c 2bbe 2373 30be 0cd5 6cbe 5095 3fbe
00000080: 6d4a 063e aef6 52be 5beb 8f3e 0852 983d
00000090: fe85 5dbe 7ed0 133d be26 a93e 9e97 88be
000000a0: 8027 25be 7a7d 8ebe 2419 a1bb fc5d 833e
000000b0: e264 93be 4393 09be 41f2 4fbe 03dd 1b3e
000000c0: 9b45 30be 9016 9d3e 1b54 91be 9075 ea3c
000000d0: b333 003f 37b7 afbd dec0 64bd 01a9 d83d
000000e0: 280e 8dbe 7f20 6d3e 289a 16be 22bc d7bc
000000f0: 98ed 54bd 76f1 07be f158 c43e ab02 8cbe
00000100: 77a2 733e 591e 8e3e 5fe9 8c3d e18a 2ebd
00000110: c907 37be 3433 b13e 077e 72be 4878 9e3e
00000120: 4dde 5fbe 76c0 4fbd 2278 40be 5812 003e
00000130: 87b3 723e 8e67 a7bd bbbd 823d c03a 2dbe
00000140: a044 eebd 5a65 6cbe c49b bfbe 224f e03d
00000150: 723f 403d dd9f c63e d843 4f3e 4558 6ebd
00000160: b945 dc3e 440c 7dbe 4181 b03c 5eca a43e
00000170: 716a 8e3e 9805 da3d 6714 eabe 609d 65be
00000180: c912 243e 71de aebc 0060 9ebe d87b 78be
00000190: 3c78 653d 9d11 273e a5ec cd3e 4212 d33d
000001a0: 19ec 5f3e 381a 4bbc d02a c63e e8b8 8abd
000001b0: d84d 0cbe be8d 14be fd2d 6cbe d146 603e
000001c0: 3f48 8e3e 31d1 be3e 47da 1c3e a34e 6b3e
000001d0: f7a1 f8be 2b61 343e 6827 c63e cc5a ccbe
000001e0: d295 783e af94 d83e bf28 a3bd a9fa 83be
000001f0: 4624 56be 9d89 d5be d334 a23e 3621 30be
-0.2891514 0.47232434 -0.30548236 0.359249 -0.08536586 -0.11124907 -0.41370586 0.31822878
-0.34699667 0.6218479 -0.16887146 0.3197264 -0.112601705 -0.35178968 0.42175403 -0.1080738
-0.34352297 -0.06880577 -0.2749336 -0.23249692 0.39855108 -0.3643816 0.015864331 0.32595226
-0.3314305 0.14268346 -0.13176973 0.05823501 -0.1674049 -0.17231421 -0.23128146 -0.18709302
0.13114329 -0.20601913 0.2810925 0.07437521 -0.21633145 0.036087506 0.3303737 -0.26678175
-0.1612835 -0.27830106 -0.004916327 0.25657642 -0.28787905 -0.13435082 -0.20307256 0.15221028
-0.17214052 0.30681276 -0.2838448 0.028620511 0.50078887 -0.08579867 -0.055847995 0.1057911
-0.27549863 0.23156928 -0.14707243 -0.026334826 -0.0519844 -0.13275704 0.38349107 -0.27345785
0.23792444 0.27757528 0.068804495 -0.042612914 -0.17874064 0.34609377 -0.23680888 0.30951142
-0.21862145 -0.050720654 -0.18795827 0.12506998 0.23701297 -0.08174048 0.063838445 -0.16916943
-0.11634183 -0.23085538 -0.37423527 0.109525934 0.046935506 0.3879384 0.20240724 -0.05818965
0.43021944 -0.2471171 0.021546008 0.32185644 0.27815583 0.10645598 -0.4571869 -0.22423315
0.16022791 -0.021346303 -0.30932617 -0.24265993 0.056022868 0.16315313 0.40219608 0.10306217
0.21867408 -0.012396388 0.38704538 -0.06773549 -0.1370157 -0.14507195 -0.23064418 0.21902014
0.27789494 0.37268975 0.15317641 0.22979216 -0.4856107 0.17615192 0.3870194 -0.39913023
0.24275902 0.42300937 -0.07966756 -0.25777176 -0.20912275 -0.41706553 0.31680927 -0.17200169

fc.2.weight f4 [128, 128]
00000000: 3078 33bd e561 84bc 00bf 4a3d d007 023e
00000010: 9363 e9ba 79f2 02be d18e b83d d96d 4dbd
00000020: e7a1 ea3a 23e0 bd3d fd51 88bd 8663 143d
00000030: c4ad 33be fcc6 823c 9772 8dbd b37c a13d
00000040: ab34 b83d b23b 4cbe 0abc bb3d 4ee2 8f3d
00000050: b14c 3d3c 8f5b eebd 3408 61bc 086a debd
00000060: d6a1 053d 2b99 bcbd e2a6 443d 4006 67bd
00000070: 0f3b 9f3d 6224 c5bd a48e 84bd 0ebc 8cbc
00000080: a967 de3c bfc7 f23b 82bd 39be ef3d b4bd
00000090: 1492 b53d bb5d 8c3b ea1b 10be 6cce 50bd
000000a0: c5e6 6f3e 8ebe b83b 64fe 27be 1627 a93d
000000b0: d39d 8dbd f37f b43c e90a 2bbd 7c5d 87bd
000000c0: d2b6 17bc 5888 683c 734d aabd 512a 263d
000000d0: 390a 903c d091 66bd 79be 38be 37f9 273c
000000e0: 0872 bfbb a789 013e fcee 8dbd de5e 39be
000000f0: 1283 3b3e d808 e5bd cc04 c93d a259 2abd
00000100: 0d76 f9bd e145 8b3d ae26 afbe 14a1 523d
00000110: 3947 5d3d ee9c 283d 054e 513d 4c60 113d
00000120: 0938 663c 26b0 16bc 9b9b 4fbd 22fd 23bd
00000130: 6349 85bd 2832 44bb c90b 1dbb aff6 cf3d
00000140: 093a 71bc c529 4cbd d59e c2bd 9c64 5ebd
00000150: 44ac 63bd 6894 c43e e456 963d 34b2 96bd
00000160: 6674 613d ec79 43bd b63b 16be f6a0 9f3d
00000170: dab0 ffbc 705d 1c3d acbb dc3c 5c6e 27be
00000180: 9b71 063e b60f a3bd 5c7d 7cbd 4db2 303d
00000190: f077 bebd 47d7 90bd 52e0 eebd 631e a4bd
000001a0: 35fd 49bd dc84 0cbd 1733 833d b84d 183c
000001b0: d626 db3a 90cf 32bc d3e9 a73c 7f27 013d
000001c0: 3730 d53d 6f3b a0bd b0e6 75bd 8688 783b
000001d0: bcd4 92bd df1c 313d 4e50 d73d 48a4 f3bc
000001e0: b32d 423c c694 c9bc 78aa 433e c56b 8bbd
000001f0: 0a22 4abd 5eea 21bd 0d96 ac3d 67e8 05be
00000200: d29e 5b3d e86f 4c3d 6421 60bd 72c1 04be
00000210: 3783 79bd 7c61 2d3d 6c35 21bd 41ea eebd
00000220: 9ef4 6e3d 012b 91bd b6db b43c ef98 b5bc
00000230: c6cc 723c 05ab 1ebd cec0 9ebc e735 10be
00000240: f1a1 a4bd 45c9 cd3d 6899 60bc c6c9 2abc
00000250: 3dda c9bc 5723 c5bc f0e4 8b3b b140 c1bd
00000260: 9a6a 1b3e 143e ccbd 5505 aa3d 3eb5 b13c
00000270: d7a9 b0bd 47bc 2d3d 7faf 0abd 0590 533d
00000280: 848e 3cbd e3e3 143d 42a5 523c 0c46 b3ba
00000290: c965 2a3c aa4e 333d 034f 19bd 6cab f33c
000002a0: 87d0 853d 96fb 32bd 1587 0e3d 07eb 2abd
000002b0: e9da 80bd 87be 16be 3a6c 47bd 30ac 57bd
000002c0: ec9c 06bd 00c1 033d 92fc d0bc 75fc efbd
000002d0: 72eb 9bbd 7d99 643d 0ccb 88bd 9873 a3bd
000002e0: 64bf 36bd b2eb d23c a001 87bc a6a0 613c
000002f0: bbfb 3f3d 1acf 363d 6503 d8bd e9b1 12bd
00000300: 5a64 45bd adc0 793d 3a55 b63c 77b9 bebd
00000310: ea07 e7bd 1fcc 97bd c452 f1ba ef88 12bb
00000320: 3cdb e0bc b013 a6bd 31ab 9bbc 7ff6 803d
00000330: 4a18 bebd 3b8a c3bd 4f3f 2c3d 6517 7d3d
00000340: b25e 34bd d982 44bd 895f 55bd 786d dbbd
00000350: a7f4 34bb b519 a4bd 8861 35bd 58ea 76bd
00000360: d738 cabd a868 8e3d 9a39 8cbd 9209 8fbd
00000370: dedc 12bc 6ae4 8e3d 09b0 31bb 8214 b7bd
00000380: 9411 fd3d 5eb7 243d 0314 c6bc 4d7c c5bd
00000390: 0736 97bd 4e7f 9f3c fde8 cdbc 1fd6 133d
000003a0: 2037 24bd a79d d4bd 43cd c13c 3a77 c1bd
000003b0: eff1 dbbd b55d 98bd a0ab 643d d306 0b3d
000003c0: 2dc3 07be 3199 b0bd c254 3e3d f7a4 dbbd
000003d0: 1013 1bbb 6cb5 4cbd b863 a23d a45e 943d
000003e0: 7d2b babd db85 8fbd 9678 503d 7837 b03d
000003f0: c4c9 823c 0628 ddbd 228a bb3c c3f3 94bc
-0.04381579 -0.016159961 0.049498558 0.12698293 -0.0017806165 -0.12787808 0.09011615 -0.050153587
0.0017901034 0.09271266 -0.06656263 0.036227725 -0.17546755 0.015964024 -0.06906622 0.078851126
0.089944206 -0.19944647 0.09166725 0.07025586 0.011553929 -0.11638557 -0.013734866 -0.108600676
0.032625042 -0.09208902 0.048010714 -0.056402445 0.077749364 -0.0962608 -0.06472519 -0.017179515
0.027149038 0.0074090655 -0.18138698 -0.088008754 0.08865753 0.0042836345 -0.14073148 -0.05097811
0.23427875 0.0056379503 -0.16405636 0.08259408 -0.06914868 0.022033667 -0.04175845 -0.066096276
-0.009259896 0.014192663 -0.083155535 0.0405677 0.017583 -0.0562914 -0.1804141 0.010252289
-0.005842451 0.12650166 -0.06930348 -0.18102595 0.18311718 -0.111833274 0.09815368 -0.041589387
-0.121807195 0.06800438 -0.34209198 0.051423147 0.054023 0.041165285 0.051099796 0.035492226
0.014051446 -0.0091972705 -0.050685506 -0.040036328 -0.06508138 -0.0029937122 -0.0023963323 0.10154473
-0.014723309 -0.049844522 -0.09502951 -0.054295167 -0.055584207 0.38394475 0.07340792 -0.07358208
0.055042647 -0.047723696 -0.14671215 0.07794373 -0.03121226 0.038175046 0.026944958 -0.16350693
0.13129275 -0.07961981 -0.06164299 0.04313879 -0.0930022 -0.07072311 -0.116638795 -0.08013608
-0.049313743 -0.034306392 0.06406229 0.009295873 0.0016719948 -0.010913745 0.020497238 0.031531807
0.10409587 -0.07823836 -0.060034454 0.0037923171 -0.07169482 0.043240424 0.10513364 -0.029741421
0.011851716 -0.024607074 0.19107997 -0.06807665 -0.04934887 -0.03953015 0.084270574 -0.13076936
0.05361826 0.04991141 -0.054719344 -0.12964419 -0.06091615 0.042329296 -0.039357588 -0.11665774
0.058338754 -0.070882805 0.022077423 -0.022167651 0.01481933 -0.038737316 -0.019379046 -0.14083062
-0.080387 0.10048155 -0.01370845 -0.010424083 -0.024640197 -0.024064703 0.004269235 -0.09436167
0.15177384 -0.09972778 0.08301798 0.021692868 -0.086261444 0.042415883 -0.033858772 0.05165102
-0.04603435 0.036350142 0.012856783 -0.0013677492 0.010400244 0.04377619 -0.037428867 0.029744826
0.06533914 -0.043696962 0.034796793 -0.041728046 -0.06291754 -0.14721118 -0.048687197 -0.052654445
-0.032864496 0.03216648 -0.02551106 -0.11718074 -0.07613267 0.05581044 -0.06679353 -0.07981032
-0.044616118 0.025747154 -0.016480267 0.013771212 0.04687093 0.0446311 -0.105475225 -0.0358142
-0.048191406 0.060974766 0.022257436 -0.09312718 -0.11280806 -0.0741198 -0.0018411507 -0.002235945
-0.02744829 -0.08109224 -0.019002529 0.062970154 -0.092819765 -0.0954785 0.042052563 0.06178989
-0.04403562 -0.04797635 -0.052093063 -0.10714239 -0.0027611644 -0.08012716 -0.044282466 -0.06028208
-0.098741226 0.06953555 -0.06846924 -0.06984247 -0.008963792 0.0697716 -0.0027112982 -0.089394584
0.123568684 0.040213935 -0.024179464 -0.09642849 -0.07383352 0.019469883 -0.025135512 0.036092874
-0.040091634 -0.10381632 0.023657447 -0.09446569 -0.107395045 -0.07439748 0.055827737 0.033942055
-0.13258047 -0.08622969 0.04646755 -0.10724824 -0.0023662485 -0.049977705 0.07929176 0.07244614
-0.09090326 -0.07007953 0.05089625 0.0860433 0.01596535 -0.107986495 0.022893015 -0.01818264

fc.2.bias f4 [128]
00000000: 81cf 823c 278f 09be 1ad3 003d d77d 903d
00000010: 6b45 123e b1f1 073e b61e a13c 0bee 2a3e
00000020: c50d fabc 82fa bc3d 6940 963d 0a58 64bd
00000030: b7f9 acbd 2b45 dbbd 8617 923d 95fd b0bd
00000040: 9e9d 173e 00f3 abbc 2d38 b9bb 0bc7 353d
00000050: 3068 a43d e24c 21bd a5df 503d 3259 833c
00000060: a4b8 753e 0f44 d1bb e7e5 cfbd 5ecc 7abb
00000070: 9a66 923d 4ded 57bd de9f 663d 25fa f63d
00000080: 83e7 503e ba1a 9fbd 484e d33d 8d43 b83d
00000090: 9e0d aebd 0f38 bb3d 1ce4 a43d 3e01 963d
000000a0: dd4f 90bd 0567 1abe c9d6 703d b5dc 9ebd
000000b0: b9ab f73c 1ad5 6a3c ef53 95bd 0931 b9bd
000000c0: 37f7 25be c9d0 273e 04aa 283e b1b5 f33d
000000d0: 7c1c b73d 379f 02be cfe1 073e 19c5 e03c
000000e0: 0dca 063e 395f 823d 55dc ca3d 1d10 843d
000000f0: b7c8 86bd e0a7 a0bc f387 973d cd8f 233d
00000100: 5ee0 23bd 2e51 11be 9665 3a3c 9960 b3bc
00000110: d957 92bc 006f 88bd af2b 2e3e e379 643c
00000120: f3ec cd3c aa8a 94bb 6830 ec3c 002d a1bd
00000130: 3d9d c8bd de5b 80bb 9d45 433d 6fda 2f3d
00000140: c590 4cbd eae6 0cbd 1241 f63d ee4e 553c
00000150: ae37 57bd b424 03bd c24f a43d d2b3 933d
00000160: 1b21 d8bd 4cfb 363d 2f38 bfbc 00b3 84bd
00000170: e63f 243e e0b7 9d3b 16aa e53d 36e4 febc
00000180: c329 ff3c 4827 723d 15fc b13d e6fc cc3c
00000190: 03a2 bdbd 30a9 a93c d2a4 23bd 50d8 053e
000001a0: eac1 08bd 9e4a 8cbb 71c4 683d 70f8 e3bd
000001b0: 4a6d 323e f25b b8bc dda1 af3c e960 453c
000001c0: e05f 9bbd 71ab a3bd 00f0 d43c 50be e9bc
000001d0: acf4 75bb ba9b 47bd 6283 1d3d d5e1 e9bb
000001e0: ae34 9ebd 4866 863c 3881 abbd 1d60 5dbd
000001f0: d753 13bc 7be8 43bd 9c1c 013e 2a07 8cbd
0.015968086 -0.13433515 0.031451322 0.07055252 0.14284293 0.13275792 0.019667964 0.16692369
-0.030524144 0.09227468 0.07336504 -0.055748023 -0.08446067 -0.10706552 0.07133393 -0.08642117
0.1480622 -0.020989895 -0.0056524486 0.044379275 0.08027685 -0.03937996 0.050994534 0.016033743
0.23996216 -0.006386287 -0.10151272 -0.0038268785 0.07148476 -0.052716542 0.056304805 0.1205943
0.20400815 -0.077687696 0.10317665 0.08997259 -0.08498691 0.09141552 0.08051321 0.07324456
-0.07046483 -0.15078361 0.058798585 -0.0775694 0.03023325 0.014333034 -0.072914 -0.09042556
-0.16207586 0.16388239 0.16471106 0.11899889 0.0894098 -0.12756048 0.13269733 0.027437733
0.13163014 0.063658185 0.09905306 0.06448386 -0.06581252 -0.019611299 0.07398977 0.03993206
-0.040008895 -0.14191124 0.011376759 -0.021896647 -0.017864155 -0.066617966 0.17008851 0.013945076
0.0251374 -0.0045331316 0.028831676 -0.07869911 -0.09795616 -0.0039172014 0.04767381 0.042932924
-0.04994275 -0.034399904 0.1202413 0.013019307 -0.052543335 -0.032017425 0.08023025 0.072120324
-0.10553189 0.04467325 -0.02334222 -0.06479454 0.1604 0.0048131794 0.11214082 -0.031114679
0.031147843 0.059119493 0.08690659 0.025022935 -0.09259417 0.020710558 -0.039952107 0.13070798
-0.033388056 -0.004281356 0.056827966 -0.1113137 0.17424503 -0.02250478 0.021439487 0.012047031
-0.07586646 -0.07991684 0.025993347 -0.02853313 -0.003752987 -0.048732497 0.038455375 -0.007137517
-0.077248916 0.016406193 -0.08374256 -0.05404674 -0.008992157 -0.047829133 0.1260857 -0.06837304

fc.4.weight f4 [128, 128]
00000000: 8a4f d03d 3a5b de3d f7a5 b63d de5a 5e3d
00000010: 6255 01bd a885 133c 02c3 dc3d 8bf2 3a3d
00000020: 0d8f 0fbd 7faa ffbd 1b42 c8bd 472d 283d
00000030: d76a 543d b4de 103d e3b6 56bd 8a92 a13c
00000040: e86d 16bd 605a 00bc d7ea b33d 7a6a 38bd
00000050: ae1f 5f3d 0cb3 67bd b89f 5e3c 1c2c 44bd
00000060: d9ba 6abd 2c94 3b3e f809 3d3e 5fcc 4ebd
00000070: 3dc5 8fbc f66c 963d 1934 1d3d bc20 77be
00000080: e2de 03be bf5e 2e3d 33b9 ccbd 715f 9cbd
00000090: 2151 5c3d 7fe8 043d efc4 723c 65a3 483d
000000a0: bef9 f33a f09b 533e 7407 48be 5221 82bd
000000b0: 0f99 9bbc 09c6 303d 14e4 a03d dbfd 8dbd
000000c0: c4fd 83bd 9b6e a53d 3038 55bd 602e 6bbe
000000d0: 0134 953d c44a e6bd ca1d 22bd f651 f3bd
000000e0: 4ba8 193e 8dba 34bd 2d58 b5bc 6d78 38bc
000000f0: be24 283e 2d22 883d ecd1 30bb 9653 d83b
00000100: bffd 733c 658a 05be 55d4 87be fa7f f43d
00000110: cbfc 6c3d e066 773c 1d1c c83d 0cfb 87bc
00000120: fa33 ff3d 605a 6cbc a45b b9bc cdfd 63bd
00000130: 9baf 3a3e 0793 adbc 3c8c 543d 6e7f 1e3d
00000140: 5a6b b73d 3c00 683d 6578 d2bc 78b7 dd3d
00000150: f672 183e 77dd c23d 2358 373d 7302 8b3c
00000160: 54cb 103e 945b e1bc 07fb 9e3a 856f a93d
00000170: f48e fe3d 7872 bbbd 9ee8 303d b8c3 86bc
00000180: 3ca1 05bd a309 71bc b1df 0e3e e270 b5bc
00000190: 691c 53be e093 373e bb44 cb3d fd3c eabd
000001a0: 62cf 4b3d 295c 35bc 170a 84bd 031c 1b3d
000001b0: b9b7 283c 3c45 293e 0b43 1b3e ee68 8d3b
000001c0: ae7e 643d a576 3cbe 22b7 2dbe db4b 52bc
000001d0: a09c b63d 18d2 083d ebbc 633d a76c aebd
000001e0: 193f b4bd bfe6 4ebc fc99 0a3d 1396 903d
000001f0: cb96 b0bc 82ca 54bb ae5e 2f3e 5ac6 b33c
00000200: d96b f2bc db14 a5bc bed4 633d 90b5 063e
00000210: 7f37 70bd 5a8b f2bd c80c 7a3d 0ed5 8c3d
00000220: 4a3f 8ebe c5e1 39bd eb77 9cbd ec76 c83c
00000230: c0f4 4b3e b32f 023e 0558 b3bd 7e70 9dba
00000240: a71d 49bd 940f 1e3d bf7c 12bc 90ef d53c
00000250: c2db 443c 2a19 943c 610b ef3b 9c51 893d
00000260: 66a9 1abd 8149 a63d ccbc 6a3d ab2f 5ebe
00000270: 7f0a ac3b f7da 8cbc eece 88bd 8708 913d
00000280: 4879 4ebe ebfd 40ba 09f4 13be 7f96 10bd
00000290: 4f93 1fbd 0923 7cbc 707f 2bbc 4d41 383d
000002a0: 252f b3bd 942d 9b3d 36d7 0ebd bab9 083d
000002b0: 9cbc 863d be25 a73c 8f68 f4bd a5a8 af3d
000002c0: e3ae 8e3d 6e9e 8e3e 5314 62bd ef65 08be
000002d0: 2059 efbc 0eb3 aabd 32b5 1ebe 581a 22be
000002e0: 2ae7 003e d191 de3d 98e6 fbbd 220f d73c
000002f0: 3108 d33d ec46 0d3e 0795 013b 0ac1 59bd
00000300: 9d3c 8b3d 7e9f 53be 5e6a 69be d2ea 2f3e
00000310: 9a15 edbc 9c32 c8bc 2d4a 883d 79d5 e53a
00000320: 2139 c2bc 924c 3fbc e58d bebc 906e 51bd
00000330: a158 023c b011 403d 4901 133d 68b5 3cbd
00000340: 7a64 b63d e16e ec3d 9acb 72be 1b8d 94bc
00000350: f6dc 403d 32be 1f3d 81ef 293e c2cd 19be
00000360: bb9a e03d 6549 f3bc bf3b cd3a 4a50 2d3d
00000370: b9e1 853d a538 a5bd 05ff 713d 7aa9 673d
00000380: d71c b13c 435a bcbd 02f3 ac3c 33a0 bcbb
00000390: 4067 1bbe 9d27 4a3e 080e 223e a939 dbbd
000003a0: 9445 9dbc 2f9f 62bd 147f 03be 6c9a 9cbd
000003b0: 3009 a6bd c668 153e 0713 353d 55ee 553c
000003c0: 7ff1 75bc b8a3 1bbe 86ee 03be 86e6 9cbd
000003d0: 93da 6c3e 0c74 023e 0686 5dbd 4ffc 333c
000003e0: 3eef 363d 0785 6e3d c8b6 a5ba fec0 5cbd
000003f0: efa6 9fbd 3fd9 713d bf9e af3d 5f54 0cbd
0.10171421 0.10857244 0.08918374 0.054285876 -0.031575568 0.009004034 0.10779382 0.045641463
-0.035048533 -0.124836914 -0.097782336 0.041058805 0.051859703 0.035368636 -0.052420508 0.019723196
-0.03672591 -0.007834047 0.087850265 -0.04502342 0.05447357 -0.056567237 0.013587885 -0.04789363
-0.057307098 0.18318242 0.18460834 -0.050487872 -0.017550105 0.073450014 0.038379762 -0.24133581
-0.12877992 0.042570826 -0.099962614 -0.076353915 0.053788308 0.032448288 0.01481746 0.04898395
0.0018613858 0.20664954 -0.19534093 -0.063540116 -0.018993882 0.04315761 0.078560024 -0.06933185
-0.06444886 0.08077737 -0.052055538 -0.2296691 0.072853096 -0.11244729 -0.03957919 -0.11880867
0.15005605 -0.04412322 -0.022136772 -0.0112591805 0.16420266 0.066471435 -0.0026980592 0.006601761
0.014892041 -0.13041075 -0.26529184 0.11938472 0.05785827 0.015100211 0.09770987 -0.0165992
0.124610856 -0.014425844 -0.022626705 -0.055661965 0.1823105 -0.021188272 0.05189155 0.038695745
0.089560226 0.05664085 -0.025692174 0.108260095 0.14887604 0.09514897 0.044761788 0.016968941
0.14140064 -0.027509488 0.0012129255 0.08273224 0.1242961 -0.091526926 0.04319059 -0.016450748
-0.03262447 -0.01471177 0.13952519 -0.022148553 -0.20616306 0.17927504 0.09925219 -0.11437414
0.049758323 -0.011069336 -0.06447237 0.03786851 0.010297709 0.16530317 0.15162294 0.004315487
0.055784874 -0.18404634 -0.16964391 -0.012835468 0.089165926 0.033403486 0.055600088 -0.085168175
-0.088010974 -0.012628256 0.033838257 0.070598744 -0.021556279 -0.0032469337 0.17125961 0.021945167
-0.029592441 -0.020151546 0.05562281 0.13155198 -0.058646675 -0.118429855 0.061047345 0.068765745
-0.2778266 -0.045381326 -0.0764006 0.024470769 0.19917583 0.12713508 -0.08757023 -0.0012011675
-0.049100544 0.038589075 -0.008940875 0.026115209 0.012015285 0.018078405 0.0072950576 0.06705019
-0.037759207 0.081194885 0.057308957 -0.21697871 0.0052502747 -0.017194254 -0.06680094 0.070817046
-0.20163453 -0.00073620555 -0.14448561 -0.035299774 -0.038958844 -0.015389212 -0.010467395 0.04498415
-0.087492265 0.07577053 -0.03487321 0.033380248 0.06578943 0.020403739 -0.119340055 0.08577088
0.06966951 0.27855247 -0.055195164 -0.13320135 -0.029217303 -0.08334933 -0.15498808 -0.15830362
0.12588182 0.10867656 -0.12299842 0.026252333 0.10304297 0.13796586 0.0019772665 -0.053162612
0.067986704 -0.2066631 -0.22794482 0.1717942 -0.028940964 -0.024438195 0.06654773 0.0017534933
-0.023708882 -0.011675971 -0.02326102 -0.05113083 0.007955701 0.046891868 0.035889897 -0.04607144
0.08905883 0.11544586 -0.2371048 -0.01813369 0.047085725 0.038999744 0.1659527 -0.15019897
0.109670125 -0.029698083 0.0015658065 0.042312898 0.06537194 -0.08067445 0.059081096 0.05655811
0.021620197 -0.091969036 0.021111969 -0.005756402 -0.15176105 0.19741674 0.15825665 -0.10704357
-0.019198216 -0.05532759 -0.12841445 -0.07646641 -0.08107221 0.14590749 0.0442076 0.013057311
-0.01501119 -0.15199172 -0.12883958 -0.07661156 0.23130254 0.12739581 -0.054082893 0.010985448
0.044661753 0.058232334 -0.0012642974 -0.05389499 -0.07795512 0.059045073 0.085752 -0.03426015

fc.4.bias f4 [128]
00000000: 209b 623d 9691 b7bd aa93 96bd b470 8cbb
00000010: 375d 5ebd 06ce f7ba 4c5c 3dbd 70ea 0f3e
00000020: 1c00 8abd ec7f cabd a3d6 d53c 3051 bc3a
00000030: 7e02 c6bd f0a3 8dbd 1ffb 9e3e b265 9a39
00000040: 23e0 8e3a f6ac ab3d 224a ba3c dccb 81bd
00000050: c03f 6b3d 4fae 003b ef75 7dbd 9751 b0bd
00000060: 90de aabd fdb7 fb3d bc41 623d b58d 103d
00000070: 4e3a 07bd 0233 ccbd 01b7 05bd e3dc 3a3d
00000080: 668c 11bd 328e cd3d dcee 83bd 0545 19bd
00000090: c365 b33d e2b5 a93d 5d3f dfbd 3b9f a5bd
000000a0: 54d4 9d3d 91b1 47bd 6b62 1dbd e238 193e
000000b0: f125 f23d aa4f f03d 7ad6 f53d c18d a63d
000000c0: f9d3 093e db0f 0d3d 9135 36be 3168 123d
000000d0: e2a7 e3bd 6748 9dbd 96e3 303d 52ad a4bd
000000e0: 0280 8b3d ca5f 963d 5443 56bb 9eb8 6c3d
000000f0: cfc3 8bbd 88dc 113d 6e2f 4dbc 29d8 b03c
00000100: b3ff 43bd 3394 7e3c 9c01 8a3c a30b 8c3d
00000110: f747 86bd d9d0 113d 7617 863d e9d9 803d
00000120: f5f6 e23c b2ac 1c3e 9f6b c3bd e166 b9bb
00000130: e79e 823b b569 cd3d 75f7 c2bd 7da0 1ebe
00000140: e0b6 47bd 26e3 143d 4dd5 363d 7ac4 bbbd
00000150: f369 c6bc 3fa1 7fbc b8e7 38bd 2884 3a3e
00000160: 3326 8f3c 8844 d3bd f8d7 d03d bfe8 e23d
00000170: e09c 243c 9d5c babc ca51 dd3c d325 dbbd
00000180: cd18 b6bc 5afd b1bd 82df ba3d edea e0bc
00000190: 8bc5 85bd 6a54 9b3d c3ba 3abd f23b 89bd
000001a0: 91c2 5fbc 040b 153b 7b09 25be 0ef4 643d
000001b0: 5bf4 da3d 6fbd 953d 5b42 02be b997 a5bd
000001c0: a620 dbbd 1c40 363e 63a4 d33d cb91 8c3c
000001d0: cf7f aebd 966e d1bd 2adb 8f3d c3c1 0fbe
000001e0: a62a 183d 5deb e33c 58dc b63d 970e 033d
000001f0: 27df 263e f09c 79bd 7684 8f3d ccfd 973d
0.05532372 -0.08963315 -0.073523834 -0.004285896 -0.054288115 -0.0018906004 -0.0462306 0.14054275
-0.06738302 -0.098876804 0.026103323 0.0014367457 -0.09668444 -0.06916034 0.31050965 0.00029448938
0.0010900538 0.08382599 0.022740427 -0.06337711 0.057433844 0.0019635146 -0.06188005 -0.08609312
-0.08343232 0.12290952 0.05523847 0.035291392 -0.033014588 -0.099706665 -0.03264523 0.04562081
-0.035534285 0.10036887 -0.06442043 -0.037419338 0.08759644 0.082866445 -0.109007575 -0.080870114
0.07706514 -0.048753325 -0.038423937 0.14963105 0.11823643 0.11733945 0.12003799 0.08132506
0.13459767 0.03443895 -0.17793871 0.035743896 -0.111160055 -0.07679825 0.043185793 -0.08040871
0.06811525 0.07342489 -0.003269394 0.057793252 -0.06824457 0.035610706 -0.012523515 0.021587448
-0.047851276 0.015538263 0.01684647 0.06838157 -0.06556695 0.035599563 0.065474436 0.06291563
0.027705649 0.15300253 -0.095420115 -0.005658016 0.003986228 0.10029928 -0.09519855 -0.15490909
-0.048758388 0.036349438 0.044637013 -0.09168334 -0.024220442 -0.015602409 -0.04514286 0.18214476
0.01747427 -0.10315806 0.10197443 0.11079549 0.010047168 -0.02274924 0.02701654 -0.10700574
-0.022228623 -0.08690901 0.09124662 -0.027455771 -0.06531819 0.0758446 -0.045588266 -0.06700887
-0.013657228 0.0022742162 -0.16116898 0.05589681 0.10691138 0.07311522 -0.12720625 -0.080855794
-0.106995866 0.17797893 0.10334089 0.017159363 -0.08520471 -0.10226171 0.07024224 -0.14038758
0.037150048 0.02782219 0.08928746 0.031996336 0.16296063 -0.060940683 0.07007687 0.07421455

fc.6.weight f4 [4, 128]
00000000: 4156 a23d cf7f de3d 2008 ec3d 7121 df3d
00000010: 6b2d b53c 612e 8eba 168c dfbb faf4 d5bd
00000020: 4ac3 913d d84b e33d 736e a23d 6cdc a13d
00000030: 461b 033e 93c2 14bd cfdb ef3d b48b 59bd
00000040: a5aa ac3d cdc7 883d 42d5 2f3c 2ad8 583d
00000050: 2313 ee3a 8463 a5bc bc5c 36be 8083 c03d
00000060: 803c 133d 9591 3abe 41b8 ce3b 8867 ffbc
00000070: c6ee 2bbd 9dd7 f03d 34a5 183e 6016 9cbd
00000080: c3cd fbbd e643 02bd 170a 6bbd 2ce2 013e
00000090: 1d2c debd cc2e 503d 202f 94bd 9014 2d3d
000000a0: 42f5 d93d b3ac 443a b0f9 47bc 1830 2abe
000000b0: c9fe 1bbe 2d19 223d e08d 1bbe af61 0abd
000000c0: 0275 bb3c 5d1c 1ebe 5235 3c3d 3a5c c8bd
000000d0: 72b2 b3bd b5f7 a33d f974 2f3d 34e1 963d
000000e0: 9423 19be da54 5ebd 449d c6bb f803 75bd
000000f0: 81ca 42bd 3be0 11be 2485 53be 87e7 153e
00000100: 6c35 6f3d 1351 ae3c b456 f0bd 4cc0 15bd
00000110: 75ca 963d a8a6 4b3e 9702 123c e4c8 e13c
00000120: c6aa 453d 9c2d 27bd 4747 e33d dcba f73d
00000130: 9428 863d d6b2 d8bd 6577 2b3e fe74 d83d
00000140: 1bfd 82bd f2bb 373d f94a 1f3b 8036 a5bd
00000150: 7005 e33d 28f0 8dbc e2db 17bc c979 72be
00000160: 0d6e 373b b016 da3d 9b56 6fbe 55ea 123d
00000170: a1b0 683d a165 29bc 5114 babd 22e6 6bbb
00000180: 2abc d53d 41b4 a63c 9d41 93bd 7a0c 8dbd
00000190: 4dbe 67bd c473 febb 2849 733d 3916 ab3d
000001a0: 3d0b 8e3d f624 733d bad2 493d 2d06 603d
000001b0: 5d54 60be 5e34 1cbd ca63 213c 9ae0 443d
000001c0: 4cab 153e f865 07be 0f95 e73d e419 bf3b
000001d0: f429 c03c bb54 543d 564a 3c3c 7fea 9e3c
000001e0: c928 98bd a842 263e f92a 34bd 0c46 8abc
000001f0: 97b1 613d e1b8 923c 3cbe c0bc 0ec9 c83d
00000200: fa97 823d 2802 273d 0955 02bc 7875 61bd
00000210: 219a 9bbc d4e0 743d c9ba 08bd faa9 b5bd
00000220: fa72 1dbd 9b07 973c 52cb 68bd 4684 163d
00000230: 76b9 8fbc e57d eabc 9164 f9be 03c8 30bd
00000240: d581 db3d 4771 05be cfb5 6cbc 14b9 02be
00000250: 91a2 11be ba6d 003e b2fc 12bc 312c 363d
00000260: 9d3e 9e3c 4b45 35be 31bb 1fbe d21a 453c
00000270: 18e9 2abc d8bc f5bc 4d51 813d e805 c9bd
00000280: 5de7 f4bc 5ba7 953d 5139 38bd 3c9b e03d
00000290: 5efc 393e 58ef 3ebe 69a8 643c f4d6 ffbc
000002a0: 4c60 e13d fa9f 873d 91b8 ba3d 898a 9ebd
000002b0: a8f8 bcbc cbdc 4ebe 41a8 803c 29d4 3cbd
000002c0: 22ec 803d 29b0 dbbc 4139 07be 7c7c 2f3d
000002d0: 4f3b 8e3d 96d6 813d 1186 533c f039 303d
000002e0: 53c7 5b3d d48b 5e3d 48be d8bd adf6 053e
000002f0: fc8b b33c 676e 0bbd ea28 c5bd b451 36be
00000300: 0051 a63d ac09 443d 092b 573e 99be 25bd
00000310: 7105 4bbd 2e43 02bd e5f4 05be bea9 8abd
00000320: dd05 9e3d 22a9 96be 96d8 b43b 0e01 28bd
00000330: 5ba9 073d 5720 07be 5a14 1c3e a040 6ebd
00000340: aa81 a2bb 39cb 52bd 9489 2ebe f5fe 8e3c
00000350: aa25 8dbd 03df 97bd ab4a 42bc ba32 eebc
00000360: c34d 1bbd cf27 8cbd 8b5f a03c 1399 713d
00000370: 830b d4bd f6db 443d 0caa 0b3d b13f 973d
00000380: c8e0 043e c2f5 00be df95 88be 48e0 15bd
00000390: 7904 e83c f005 633d 1f13 813d 727d 31bd
000003a0: 00d1 bcbd 08ed abbc 5ecd dcbc eb04 16bd
000003b0: ff00 9ebb a2da eabc ba52 3e3d 9137 a9bc
000003c0: a83a a73c 832e d23c 0977 00bd 9b28 7b3c
000003d0: 4d81 103c f268 41be 5ed3 0ebd 08af 35bc
000003e0: b729 e5bd 2ce9 e33c 8b25 81bd 020f f83c
000003f0: 88fc a2be ca13 eebd 86ea c73d 668e 8ebe
0.07926608 0.10864221 0.11524987 0.1089505 0.022116384 -0.0010847562 -0.0068221195 -0.10447116
0.071173266 0.110984504 0.07931223 0.0790337 0.12803373 -0.036318373 0.11711847 -0.053111747
0.08430985 0.06678734 0.010731997 0.052940525 0.0018163662 -0.020189054 -0.17808813 0.09400082
0.03594637 -0.18219598 0.006308586 -0.031177297 -0.04197576 0.11759875 0.1490677 -0.07621455
-0.12295105 -0.031803034 -0.05738267 0.12683934 -0.10848258 0.05082588 -0.07235551 0.042255938
0.10642482 0.0007502541 -0.012205526 -0.16619909 -0.15233912 0.03957479 -0.1519084 -0.033784565
0.022882942 -0.15440507 0.045949288 -0.09783216 -0.0877427 0.08006231 0.042836163 0.07367173
-0.14954978 -0.05428014 -0.006061228 -0.059818238 -0.047556404 -0.14245693 -0.20656258 0.14639102
0.058400556 0.021278894 -0.11735287 -0.03656034 0.07362834 0.19887793 0.00891175 0.027561612
0.048258565 -0.04081498 0.110975794 0.120961875 0.065507084 -0.10580985 0.16744764 0.105691895
-0.06395932 0.044856973 0.0024306162 -0.08067036 0.110850215 -0.01732643 -0.009268733 -0.2367927
0.002798918 0.106488585 -0.23372881 0.035868008 0.05680907 -0.010339172 -0.09085906 -0.0035995324
0.1043628 0.020349624 -0.07190249 -0.06887145 -0.05657797 -0.007765265 0.05939594 0.08353848
0.06935737 0.05936142 0.04927323 0.05469339 -0.21907182 -0.03813588 0.009850452 0.04806576
0.14616126 -0.13222492 0.113077275 0.005831944 0.023457505 0.051838618 0.011492332 0.019398926
-0.07429654 0.16236365 -0.043986294 -0.016879104 0.055101003 0.017910423 -0.02352821 0.09803973
0.063766435 0.04077354 -0.007954844 -0.055043668 -0.018994393 0.059784725 -0.033381257 -0.08870311
-0.03843973 0.018436244 -0.056834526 0.03674724 -0.01754449 -0.028624484 -0.4870954 -0.043159496
0.10718123 -0.13031493 -0.014447643 -0.12765914 -0.1422217 0.12541857 -0.00897138 0.044475738
0.019316966 -0.17702214 -0.15598752 0.01203032 -0.01043155 -0.029997274 0.06314335 -0.0981558
-0.029895479 0.07307311 -0.044976536 0.109671086 0.18162677 -0.1864599 0.013956168 -0.031230427
0.11004695 0.0662231 0.091172345 -0.07741267 -0.023067787 -0.20201413 0.01570523 -0.04610077
0.06295039 -0.026817398 -0.13205434 0.042843327 0.06944906 0.06339757 0.012910382 0.043024004
0.053656887 0.05433257 -0.10583168 0.1308238 0.021917336 -0.034040835 -0.09626944 -0.17804605
0.08120918 0.047860786 0.2101251 -0.04046497 -0.049565736 -0.03180235 -0.13081701 -0.06770657
0.07715962 -0.29425913 0.005518983 -0.04101663 0.033120494 -0.1319593 0.15242139 -0.0581671
-0.004959305 -0.05146334 -0.1704467 0.017455557 -0.068919495 -0.07415583 -0.011858623 -0.029076923
-0.037915956 -0.068435304 0.019576808 0.058983874 -0.10353758 0.048061334 0.034097716 0.07385195
0.12976372 -0.12593749 -0.26676843 -0.036590844 0.028322445 0.055425584 0.06302475 -0.043332525
-0.09219551 -0.020987049 -0.026953395 -0.036625784 -0.004821896 -0.028668705 0.046465613 -0.020656379
0.020413712 0.025656944 -0.03136352 0.015329505 0.00881989 -0.1888769 -0.034869544 -0.011089094
-0.11189597 0.027821146 -0.06305989 0.030280594 -0.3183329 -0.11624868 0.09761529 -0.27843016

fc.6.bias f4 [4]
00000000: 542b 09bd 67e4 f83c 11be 353e 7a0b 9abd
-0.033488587 0.030382348 0.17748286 -0.0752172
