network.pth (torch, 140047 bytes, 8 tensors)

fc.0.weight f4 [128, 6]
0.35415596 0.001063202 0.34578818 0.0764329 -0.020959081 -0.18118556 -0.041906755 0.066267125
-0.23112224 0.3517744 -0.36237162 -0.025685778 -0.23470296 -0.26352748 -0.35775816 0.26548067
-0.033977073 0.15180454 0.091297396 -0.61720073 -0.17319122 -0.43816152 -0.24085179 -0.36665976
0.27583167 -0.598541 0.26772076 0.4232185 -0.10848863 0.020372963 0.5686667 -0.55372113
-0.12057827 -0.48274058 -0.080248594 -0.17381693 -0.18336341 0.24176246 -0.14436331 -0.291693
0.1854971 -0.34999582 -0.32992983 -0.3871966 -0.21139619 0.0024835905 0.19943011 0.12906767
0.23397198 -0.09953955 0.24798243 -0.24870768 0.02300029 0.3147122 0.073236234 -0.65484065
0.16053209 -0.036920115 -0.67653185 -0.18352652 -0.34335873 -0.0002064264 0.2112135 -0.24167182
0.2795725 0.23412462 0.18350926 -0.3109321 -0.082785845 -0.41300148 -0.7441498 -0.26624036
0.23675881 -0.05907853 -0.19418833 -0.12505947 0.39163566 0.1209229 0.3525332 0.25982273
0.044682506 0.065342255 0.27096233 -0.45559132 0.04617165 -0.5497981 0.08278519 0.2944714
-0.3967708 0.17847157 -0.19630253 -0.34365425 0.05096925 -0.23467655 -0.21163501 -0.1647417
-0.5385953 0.09774256 0.25613344 0.20786493 -0.15343603 -0.17688723 0.12124953 -0.228776
0.49319422 -0.101223424 -0.1261452 0.2940526 0.36801624 -0.14448786 0.40405226 0.07159717
-0.1990949 -0.16352808 -0.45188817 -0.41313905 0.21644527 -0.15499553 -0.2518183 -0.14100802
-0.3076155 -0.26002404 -0.35003823 0.041462872 0.30007842 -0.07451174 -0.3703498 -0.55739963
-0.22257073 0.28985962 -0.07889443 0.16827282 -0.48877746 -0.283257 -0.36533597 0.002281384
-0.10675555 0.32790875 0.5082682 0.11669945 0.1005744 0.034529183 0.39284158 -0.3063411
0.09837252 0.14034307 0.30357775 0.3681321 -0.2592483 0.36594307 0.15440206 -0.45941633
0.041919634 -0.23422228 -0.48096117 0.23412308 0.028738549 0.24958348 -0.16810445 0.19475439
0.3351712 0.048037153 0.33768776 0.35604104 -0.41696396 0.0006184096 0.078459926 -0.3982791
0.16830173 0.14279993 -0.36924934 -0.1673793 0.16396695 -0.24712019 -0.29023486 -0.4098433
0.069224656 0.3587075 -0.28635824 -0.04002851 0.30787393 0.28941274 0.28223115 0.103862464
-0.0333265 0.036190785 -0.19996567 0.11382642 0.14849967 -0.38499016 -0.40805116 -0.14785561
0.21527205 0.15319075 -0.46124852 0.19617754 -0.16570172 -0.39492962 0.2899703 0.14837071
0.02520224 0.108344294 0.19330935 -0.15432182 0.17483698 0.42389593 0.12415417 0.09897145
0.020553045 0.30161238 0.14597873 -0.097290374 0.2950004 -0.36706316 -0.27578488 0.37529022
-0.290124 -0.15170145 -0.18874562 0.0960404 -0.19284798 -0.14010435 -0.417547 -0.18704075
0.02951403 0.021096518 -0.045904625 -0.144663 0.20287381 -0.0027827998 -0.28634658 -0.17800787
0.3130889 0.18250605 -0.32224545 -0.30043268 -0.15926911 -0.21715152 -0.43037105 -0.18399847
0.17617995 -0.3388316 0.15730032 -0.4369128 -0.34900257 -0.104188934 -0.4139432 -0.012108838
0.21685387 0.21153802 0.08317841 0.011151206 0.23571041 0.5608782 0.09184052 -0.07673449
00000000: ee53 b53e 245b 8b3a 260b b13e da88 9c3d
00000010: 61b2 abbc b588 39be 6ba6 2bbd 0fb7 873d
00000020: 4fab 6cbe c61b b43e c688 b9be fb6a d2bc
00000030: f955 70be 13ed 86be 142c b7be 15ed 873e
00000040: 8b2b 0bbd a672 1b3e 21fa ba3d de00 1ebf
00000050: 0a59 31be b556 e0be daa1 76be d4ba bbbe
00000060: cf39 8d3e fc39 19bf b212 893e 18b0 d83e
00000070: 492f debd 33e5 a63c 2494 113f abc0 0dbf
00000080: bdf1 f6bd c629 f7be 6059 a4bd 11fd 31be
00000090: 9ec3 3bbe 9490 773e fad3 13be c958 95be
000000a0: f4f2 3d3e a732 b3be 90ec a8be a23e c6be
000000b0: 3e78 58be bcc3 223b 6837 4c3e 512a 043e
000000c0: 5a96 6f3e 64db cbbd 1bef 7d3e 3aad 7ebe
000000d0: 1b6b bc3c f521 a13e e1fc 953d a3a3 27bf
000000e0: 8662 243e 8c39 17bd 3131 2dbf 60ee 3bbe
000000f0: b7cc afbe 2a74 58b9 5a48 583e d178 77be
00000100: 2024 8f3e 5dbe 6f3e dae9 3b3e 7e32 9fbe
00000110: a08b a9bd ee74 d3be 9a80 3ebf a850 88be
00000120: e770 723e 54fc 71bd 4ed9 46be 970f 00be
00000130: 7884 c83e 6da6 f73d 3b7f b43e 7c07 853e
00000140: 0105 373d 29d2 853d 93bb 8a3e 4443 e9be
00000150: 7c1e 3d3d 91bf 0cbf 488b a93d f5c4 963e
00000160: 8b25 cbbe 40c1 363e 8803 49be 73f3 afbe
00000170: 22c5 503d 0d4f 70be d9b6 58be 0cb2 28be
00000180: 62e1 09bf 402d c83d ec23 833e 8bda 543e
00000190: 561e 1dbe ed21 35be ac51 f83d 4144 6abe
000001a0: f483 fc3e 3a4e cfbd 352c 01be 108e 963e
000001b0: a06c bc3e a0f4 13be f0df ce3e 89a1 923d
000001c0: 89df 4bbe e873 27be e35d e7be f686 d3be
000001d0: d4a3 5d3e 26b7 1ebe 54ee 80be 6864 10be
000001e0: c77f 9dbe df21 85be 3638 b3be f9d4 293d
000001f0: e1a3 993e 9c99 98bd 7d9e bdbe beb1 0ebf
00000200: 95e9 63be 7b68 943e 6793 a1bd b64f 2c3e
00000210: 0a41 fabe 1007 91be 510d bbbe 4683 153b
00000220: a7a2 dabd a8e3 a73e dd1d 023f 1f00 ef3d
00000230: f3f9 cd3d 796e 0d3d 8822 c93e bed8 9cbe
00000240: 8877 c93d 18b6 0f3e 8b6e 9b3e d07b bc3e
00000250: 31bc 84be e45c bb3e 931b 1e3e 9e38 ebbe
00000260: ecb3 2b3d f7d7 6fbe 8b40 f6be f6bd 6f3e
00000270: 1b6d eb3c d092 7f3e 9323 2cbe b26d 473e
00000280: 8f9b ab3e 9bc2 443d 69e5 ac3e 034b b63e
00000290: 4d7c d5be c41c 223a 99af a03d 3deb cbbe
000002a0: 4a57 2c3e 253a 123e 400e bdbe 7b65 2bbe
000002b0: f4e6 273e 130d 7dbe aa99 94be fbd6 d1be
000002c0: a8c5 8d3d 82a8 b73e 8c9d 92be eff4 23bd
000002d0: a7a1 9d3e e82d 943e 9a80 903e d8b5 d43d
000002e0: 5e81 08bd ca3c 143d cdc3 4cbe d31d e93d
000002f0: 4c10 183e 6e1d c5be 15ec d0be 7667 17be
00000300: 4770 5c3e 09de 1c3e c428 ecbe c4e2 483e
00000310: b6ad 29be 3734 cabe fd76 943e 7eee 173e
00000320: ee74 ce3c 9de3 dd3d e3f2 453e 8a06 1ebe
00000330: 7708 333e e308 d93e 8b44 fe3d 8bb1 ca3d
00000340: dc5e a83c f06c 9a3e 737b 153e 2d40 c7bd
00000350: 4b0a 973e b4ef bbbe ad33 8dbe 0a26 c03e
00000360: 228b 94be a057 1bbe 8846 41be d4b0 c43d
00000370: f179 45be 8477 0fbe b8c8 d5be 9c87 3fbe
00000380: 68c7 f13c 9bd2 ac3c 7d06 3cbd 8a22 14be
00000390: 27be 4f3e a25f 36bb 059c 92be b247 36be
000003a0: 304d a03e dee2 3a3e 5bfd a4be 50d2 99be
000003b0: 7117 23be f85c 5ebe 9859 dcbe 186a 3cbe
000003c0: 8468 343e 567b adbe 5613 213e 09b3 dfbe
000003d0: 77b0 b2be 0261 d5bd 5df0 d3be 2664 46bc
000003e0: f10e 5e3e 6c9d 583e 7159 aa3d 8cb3 363c
000003f0: 125e 713e b795 0f3f e216 bc3d f926 9dbd

fc.0.bias f4 [128]
-0.29273114 0.46555847 -0.31135717 0.3661146 -0.08188497 -0.09611567 -0.40995497 0.3052966
-0.34679538 0.6271534 -0.16961531 0.3209219 -0.12147353 -0.3382524 0.41597563 -0.10782107
-0.3453919 -0.06955204 -0.2822176 -0.23358302 0.3903767 -0.37359297 0.014448378 0.34464768
-0.32623622 0.15074147 -0.13702656 0.07218043 -0.16264513 -0.17516035 -0.22049573 -0.18293813
0.13079956 -0.1962265 0.28385615 0.07656345 -0.22194842 0.0153579535 0.33895582 -0.28215793
-0.15053956 -0.28153956 -0.0072295847 0.25548005 -0.29299802 -0.13076152 -0.19626728 0.15551691
-0.15551959 0.29121047 -0.28662214 0.028791334 0.49953997 -0.094064794 -0.03624366 0.10552787
-0.27789918 0.23594454 -0.14511497 -0.03186073 -0.05259947 -0.113744825 0.3980921 -0.280506
0.2504104 0.2821982 0.08136402 -0.036160327 -0.18065172 0.34118506 -0.23751402 0.31332803
-0.21559964 -0.056739137 -0.19065022 0.12609057 0.2380631 -0.08399483 0.060301118 -0.17592223
-0.11690473 -0.22742753 -0.36976954 0.12519383 0.04519724 0.39872515 0.18545836 -0.06600594
0.42389953 -0.24098194 0.017768925 0.32089403 0.27573588 0.105612546 -0.45800984 -0.24261959
0.1762018 -0.0201313 -0.31098604 -0.2449395 0.05020365 0.14801423 0.414662 0.09303731
0.21083002 -0.0126296105 0.3895274 -0.062238783 -0.13754514 -0.13585275 -0.2282747 0.20997076
0.2811285 0.3748238 0.15521096 0.23016849 -0.48652276 0.17638998 0.39085904 -0.39786777
0.2303147 0.42274934 -0.08117438 -0.25077632 -0.2165226 -0.41599715 0.31401494 -0.15611327
00000000: dbe0 95be ae5d ee3e 356a 9fbe 5f73 bb3e
00000010: 4fb3 a7bd 4bd8 c4bd 9ee5 d1be d64f 9c3e
00000020: 2a8f b1be 208d 203f a3af 2dbe e04f a43e
00000030: 1dc7 f8bd 6b2f adbe c2fa d43e 4bd1 dcbd
00000040: 35d7 b0be 4d71 8ebd d37e 90be 6330 6fbe
00000050: 74df c73e 9447 bfbe e4b8 6c3c a975 b03e
00000060: 6f08 a7be f95b 1a3e b150 0cbe 55d3 933d
00000070: 728c 26be 3c5d 33be a2c9 61be 2254 3bbe
00000080: 52f0 053e 9aef 48be 9855 913e 4ccd 9c3d
00000090: 7246 63be ed9f 7b3c 9e8b ad3e 0177 90be
000000a0: 0b27 1abe f425 90be 27e6 ecbb 48ce 823e
000000b0: d603 96be 59e6 05be 4afa 48be d33f 1f3e
000000c0: 8740 1fbe 8a19 953e 23c0 92be cedb eb3c
000000d0: b4c3 ff3e 0ba5 c0bd 3b74 14bd ff1e d83d
000000e0: cd48 8ebe 729b 713e 0599 14be 6680 02bd
000000f0: 8b72 57bd 0cf3 e8bd bad2 cb3e 7c9e 8fbe
00000100: cb35 803e 487c 903e 2ea2 a63d da1c 14bd
00000110: c4fc 38be cfaf ae3e e036 73be 886c a03e
00000120: 27c6 5cbe 4c67 68bd d039 43be e31d 013e
00000130: d0c6 733e 7b05 acbd 4efe 763d f524 34be
00000140: bf6b efbd c3e2 68be 6f52 bdbe d032 003e
00000150: be20 393d b425 cc3e cce8 3d3e 1f2e 87bd
00000160: 5c09 d93e f8c3 76be 2390 913c 394c a43e
00000170: 412d 8d3e 644b d83d 4480 eabe 4571 78be
00000180: 3f6e 343e 65ea a4bc 9039 9fbe 6cd1 7abe
00000190: 58a2 4d3d 0b91 173e 944e d43e 588a be3d
000001a0: d3e3 573e 6dec 4ebc 2370 c73e 18ee 7ebd
000001b0: a2d8 0cbe fc1c 0bbe d8c0 69be 9302 573e
000001c0: 13f0 8f3e e8e8 bf3e 9fef 1e3e 4ab1 6b3e
000001d0: 8319 f9be 939f 343e ad1e c83e 53b5 cbbe
000001e0: 9ed7 6b3e 9a72 d83e c13e a6bd c165 80be
000001f0: 1ab8 5dbe 94fd d4be 91c6 a03e 28dc 1fbe

fc.2.weight f4 [128, 128]
-0.05395785 -0.020858336 0.049485337 0.12320439 -0.012458802 -0.14631905 0.0887928 -0.04821753
0.0018316208 0.08171622 -0.064874835 0.03096075 -0.16982858 -0.0008887582 -0.07893251 0.079033524
0.08458424 -0.20682989 0.079112664 0.06981419 0.010516274 -0.117227785 -0.009423508 -0.12975988
0.031899016 -0.08825314 0.04920011 -0.06725427 0.07560644 -0.09981014 -0.07536134 -0.016621193
0.019464498 -0.00047734063 -0.17832543 -0.07995045 0.088525146 0.0026128148 -0.13593912 -0.04827662
0.22252727 -0.0017886938 -0.1541472 0.06739727 -0.081514366 0.032240637 -0.047460094 -0.07881124
-0.013930779 -0.0021333154 -0.0938287 0.042050786 0.017232446 -0.073180355 -0.20005146 0.01318817
-0.02781586 0.121555045 -0.075641125 -0.16899154 0.1960158 -0.12777673 0.09322434 -0.045653477
-0.14100142 0.058480512 -0.3440559 0.04939456 0.055667717 0.037484072 0.059824526 0.026582997
-0.004503105 -0.026410215 -0.04440275 -0.04884518 -0.067277625 -0.021837799 0.0033328137 0.08444119
-0.011112854 -0.047775775 -0.10183616 -0.06614341 -0.048943173 0.3674218 0.0747068 -0.09108733
0.051473495 -0.03599002 -0.1380882 0.06411777 -0.037293784 0.030836448 0.024742767 -0.16422899
0.1211344 -0.081175216 -0.06978407 0.047471765 -0.0880201 -0.075763635 -0.11958422 -0.0804873
-0.049793262 -0.031282622 0.057488363 -0.0066003175 -0.00074093684 -0.03379638 0.009935531 0.013538531
0.10057915 -0.077321276 -0.061608676 0.008958947 -0.07790405 0.03930093 0.10279065 -0.03524413
0.012374602 -0.039080817 0.17448075 -0.06569981 -0.040017765 -0.040227983 0.06600272 -0.14837053
0.05361826 0.04991141 -0.054719344 -0.12964419 -0.06091615 0.042329296 -0.039357588 -0.11665774
0.058338754 -0.070882805 0.022077423 -0.022167651 0.01481933 -0.038737316 -0.019379046 -0.14083062
-0.080387 0.10048155 -0.01370845 -0.010424083 -0.024640197 -0.024064703 0.004269235 -0.09436167
0.15177384 -0.09972778 0.08301798 0.021692868 -0.086261444 0.042415883 -0.033858772 0.05165102
-0.04603435 0.036350142 0.012856783 -0.0013677492 0.010400244 0.04377619 -0.037428867 0.029744826
0.06533914 -0.043696962 0.034796793 -0.041728046 -0.06291754 -0.14721118 -0.048687197 -0.052654445
-0.032864496 0.03216648 -0.02551106 -0.11718074 -0.07613267 0.05581044 -0.06679353 -0.07981032
-0.044616118 0.025747154 -0.016480267 0.013771212 0.04687093 0.0446311 -0.105475225 -0.0358142
-0.048191406 0.060974766 0.022257436 -0.09312718 -0.11280806 -0.0741198 -0.0018411507 -0.002235945
-0.02744829 -0.08109224 -0.019002529 0.062970154 -0.092819765 -0.0954785 0.042052563 0.06178989
-0.04403562 -0.04797635 -0.052093063 -0.10714239 -0.0027611644 -0.08012716 -0.044282466 -0.06028208
-0.098741226 0.06953555 -0.06846924 -0.06984247 -0.008963792 0.0697716 -0.0027112982 -0.089394584
0.123568684 0.040213935 -0.024179464 -0.09642849 -0.07383352 0.019469883 -0.025135512 0.036092874
-0.040091634 -0.10381632 0.023657447 -0.09446569 -0.107395045 -0.07439748 0.055827737 0.033942055
-0.13258047 -0.08622969 0.04646755 -0.10724824 -0.0023662485 -0.049977705 0.07929176 0.07244614
-0.09090326 -0.07007953 0.05089625 0.0860433 0.01596535 -0.107986495 0.022893015 -0.01818264
00000000: e802 5dbd 1adf aabc 23b1 4a3d 9552 fc3d
00000010: 0120 4cbc a9d4 15be 00d9 b53d bf7f 45bd
00000020: ff12 f03a d55a a73d 19dd 84bd 66a1 fd3c
00000030: 8be7 2dbe 8efb 68ba 5ea7 a1bd 54dc a13d
00000040: 813a ad3d 37cb 53be d205 a23d befa 8e3d
00000050: 734c 2c3c 1f15 f0bd 0f65 1abc c6df 04be
00000060: 8ba8 023d 10be b4bd 0e86 493d 9bbc 89bd
00000070: 8dd7 9a3d 4269 ccbd 0c57 9abd 2b29 88bc
00000080: 0374 9f3c 9343 fab9 f19a 36be 10bd a3bd
00000090: ac4c b53d c23b 2b3b a033 0bbe b5bd 45bd
000000a0: 30de 633e 9b72 eaba c3d8 1dbe 9407 8a3d
000000b0: 01f1 a6bd c20e 043d 8465 42bd ca67 a1bd
000000c0: ec3d 64bc 18cf 0bbb 4329 c0bd 723d 2c3d
000000d0: 0f2b 8d3c 95df 95bd 4ada 4cbe 3213 583c
000000e0: 16de e3bc daf1 f83d bce9 9abd 1e0c 2dbe
000000f0: 5eb8 483e e7d7 02be 67ec be3d 24ff 3abd
00000100: ad62 10be 4389 6f3d 1828 b0be f351 4a3d
00000110: d503 643d e688 193d 900a 753d 96c4 d93c
00000120: c88e 93bb 3c5a d8bc a8df 35bd e211 48bd
00000130: dac8 89bd 2fe5 b2bc 566b 5a3b 81ef ac3d
00000140: b012 36bc 88b0 43bd 7a8f d0bd 3276 87bd
00000150: a378 48bd b61e bc3e e1ff 983d fe8b babd
00000160: dfd5 523d 456a 13bd fe66 0dbe 2d50 833d
00000170: 5ec1 18bd b89c fc3c 58b1 ca3c a52b 28be
00000180: 5015 f83d 313f a6bd f3ea 8ebd c171 423d
00000190: e243 b4bd f729 9bbd 92e8 f4bd 87d6 a4bd
000001a0: 05f4 4bbd 3522 00bd eb78 6b3d 7a47 d8bb
000001b0: 6e3b 42ba 136e 0abd a3c8 223c b7d0 5d3c
000001c0: 71fc cd3d 9e5a 9ebd 6159 7cbd 8cc8 123c
000001d0: 298c 9fbd 03fa 203d e883 d23d 265c 10bd
000001e0: d8be 4a3c 3513 20bd 15ab 323e 9f8d 86bd
000001f0: abe9 23bd 19c6 24bd 6f2c 873d 72ee 17be
00000200: d29e 5b3d e86f 4c3d 6421 60bd 72c1 04be
00000210: 3783 79bd 7c61 2d3d 6c35 21bd 41ea eebd
00000220: 9ef4 6e3d 012b 91bd b6db b43c ef98 b5bc
00000230: c6cc 723c 05ab 1ebd cec0 9ebc e735 10be
00000240: f1a1 a4bd 45c9 cd3d 6899 60bc c6c9 2abc
00000250: 3dda c9bc 5723 c5bc f0e4 8b3b b140 c1bd
00000260: 9a6a 1b3e 143e ccbd 5505 aa3d 3eb5 b13c
00000270: d7a9 b0bd 47bc 2d3d 7faf 0abd 0590 533d
00000280: 848e 3cbd e3e3 143d 42a5 523c 0c46 b3ba
00000290: c965 2a3c aa4e 333d 034f 19bd 6cab f33c
000002a0: 87d0 853d 96fb 32bd 1587 0e3d 07eb 2abd
000002b0: e9da 80bd 87be 16be 3a6c 47bd 30ac 57bd
000002c0: ec9c 06bd 00c1 033d 92fc d0bc 75fc efbd
000002d0: 72eb 9bbd 7d99 643d 0ccb 88bd 9873 a3bd
000002e0: 64bf 36bd b2eb d23c a001 87bc a6a0 613c
000002f0: bbfb 3f3d 1acf 363d 6503 d8bd e9b1 12bd
00000300: 5a64 45bd adc0 793d 3a55 b63c 77b9 bebd
00000310: ea07 e7bd 1fcc 97bd c452 f1ba ef88 12bb
00000320: 3cdb e0bc b013 a6bd 31ab 9bbc 7ff6 803d
00000330: 4a18 bebd 3b8a c3bd 4f3f 2c3d 6517 7d3d
00000340: b25e 34bd d982 44bd 895f 55bd 786d dbbd
00000350: a7f4 34bb b519 a4bd 8861 35bd 58ea 76bd
00000360: d738 cabd a868 8e3d 9a39 8cbd 9209 8fbd
00000370: dedc 12bc 6ae4 8e3d 09b0 31bb 8214 b7bd
00000380: 9411 fd3d 5eb7 243d 0314 c6bc 4d7c c5bd
00000390: 0736 97bd 4e7f 9f3c fde8 cdbc 1fd6 133d
000003a0: 2037 24bd a79d d4bd 43cd c13c 3a77 c1bd
000003b0: eff1 dbbd b55d 98bd a0ab 643d d306 0b3d
000003c0: 2dc3 07be 3199 b0bd c254 3e3d f7a4 dbbd
000003d0: 1013 1bbb 6cb5 4cbd b863 a23d a45e 943d
000003e0: 7d2b babd db85 8fbd 9678 503d 7837 b03d
000003f0: c4c9 823c 0628 ddbd 228a bb3c c3f3 94bc

fc.2.bias f4 [128]
0.009275286 -0.13433515 0.033161893 0.063018486 0.13437845 0.12708656 0.015574762 0.16240066
-0.035687592 0.09002275 0.070677295 -0.051952086 -0.08213662 -0.096091874 0.067479834 -0.081783034
0.14828308 -0.020989895 -0.00552677 0.047384124 0.08027685 -0.03937996 0.045742147 0.016033743
0.23080441 -0.008711154 -0.10522729 0.0018204772 0.07148476 -0.052716542 0.056304805 0.12350621
0.20134495 -0.07318013 0.1120371 0.08803146 -0.08498691 0.08868524 0.070602 0.09623823
-0.07046483 -0.1549168 0.07457386 -0.076550834 0.03023325 0.008313894 -0.072914 -0.09042556
-0.15621573 0.1788255 0.1590529 0.12072813 0.087478995 -0.1349551 0.12577717 0.029121565
0.12660313 0.063658185 0.09760541 0.06961807 -0.07059133 -0.025043959 0.06921254 0.037344493
-0.040008895 -0.13580339 0.015435414 -0.024324704 -0.017864155 -0.066617966 0.1646159 0.013945076
0.03043568 -0.007769694 0.02858536 -0.07488009 -0.097163126 -0.0064454065 0.054413877 0.046016194
-0.045309667 -0.034399904 0.11654029 0.011616769 -0.06556468 -0.024213754 0.08953222 0.06942701
-0.10976453 0.039832417 -0.038162775 -0.06479454 0.15658967 0.0048131794 0.11540677 -0.031114679
0.018625366 0.059119493 0.08607119 0.021378499 -0.08956678 0.01174208 -0.042755477 0.12584367
-0.033388056 -0.004281356 0.054340277 -0.110131204 0.16812158 -0.024968063 0.022923483 0.012047031
-0.07586646 -0.08678455 0.031718142 -0.038697064 0.008585731 -0.05236181 0.029886004 -0.006104678
-0.077954166 0.02032284 -0.07993001 -0.05409571 -0.0144673735 -0.038717944 0.11764503 -0.06837304
00000000: 5ff7 173c 278f 09be c4d4 073d d60f 813d
00000010: 819a 093e fb22 023e 492d 7f3c 5c4c 263e
00000020: 272d 12bd d95d b83d 42bf 903d b6cb 54bd
00000030: 3f37 a8bd d1cb c4bd de32 8a3d dd7d a7bd
00000040: 85d7 173e 00f3 abbc e819 b5bb db15 423d
00000050: 3068 a43d e24c 21bd 1e5c 3b3d 3259 833c
00000060: fe57 6c3e 3ab9 0ebc 6881 d7bd 149d ee3a
00000070: 9a66 923d 4ded 57bd de9f 663d d3f0 fc3d
00000080: 5f2d 4e3e 77df 95bd b573 e53d d749 b43d
00000090: 9e0d aebd 9ba0 b53d c897 903d 8d18 c53d
000000a0: dd4f 90bd 82a2 1ebe 2eba 983d afc6 9cbd
000000b0: b9ab f73c 0037 083c ef53 95bd 0931 b9bd
000000c0: 04f7 1fbe 081e 373e c3de 223e 4f40 f73d
000000d0: 3028 b33d ab31 0abe bbcb 003e 5990 ee3c
000000e0: 40a4 013e 395f 823d 58e5 c73d eb93 8e3d
000000f0: 3092 90bd fd28 cdbc 4ebf 8d3d 8af6 183d
00000100: 5ee0 23bd 0b10 0bbe d2e4 7c3c 9a44 c7bc
00000110: d957 92bc 006f 88bd 1291 283e e379 643c
00000120: 3f54 f93c eb98 febb d82b ea3c bc5a 99bd
00000130: 76fd c6bd fd33 d3bb 16e1 5e3d 7a7b 3c3d
00000140: a196 39bd eae6 0cbd adac ee3d 4354 3e3c
00000150: c646 86bd ec5b c6bc ab5c b73d c02f 8e3d
00000160: 3acc e0bd 5127 233d 9250 1cbd 00b3 84bd
00000170: 0b59 203e e0b7 9d3b 625a ec3d 36e4 febc
00000180: 3994 983c 4827 723d 1846 b03d f621 af3c
00000190: ca6e b7bd da61 403c 5e20 2fbd 2add 003e
000001a0: eac1 08bd 9e4a 8cbb e993 5e3d 788c e1bd
000001b0: 1028 2c3e d389 ccbc 07ca bb3c e960 453c
000001c0: e05f 9bbd 19bc b1bd e2ea 013d d080 1ebd
000001d0: 2aab 0c3c 5679 56bd 7ed3 f43c c009 c8bb
000001e0: 6fa6 9fbd 167c a63c 58b2 a3bd 7793 5dbd
000001f0: 9008 6dbc b596 1ebd e1ef f03d 2a07 8cbd

fc.4.weight f4 [128, 128]
0.09781637 0.10857244 0.09066224 0.052060205 -0.028009458 0.005940319 0.107172266 0.048468046
-0.021817558 -0.109824754 -0.09324648 0.042085934 0.053225294 0.033400334 -0.05828804 0.020250332
-0.04083119 -0.007834047 0.088479124 -0.043277297 0.05447357 -0.056567237 0.0164284 -0.04789363
-0.056672078 0.18312375 0.19108969 -0.038055625 -0.017550105 0.073450014 0.038379762 -0.23535903
-0.13029899 0.040224575 -0.1010054 -0.07990133 0.053788308 0.03110439 0.013500307 0.05980106
0.0018613858 0.21404728 -0.18966037 -0.0636256 -0.018993882 0.051041447 0.078560024 -0.06933185
-0.05989397 0.08761451 -0.059692416 -0.22469847 0.064320706 -0.11248582 -0.040470254 -0.10486073
0.14768094 -0.04412322 -0.025778424 -0.010162423 0.16860946 0.07148099 -0.0085906675 0.0048511876
0.014892041 -0.13041075 -0.25806782 0.12228241 0.05785827 0.015100211 0.10164515 -0.0165992
0.12172658 -0.012722463 -0.026189871 -0.054567028 0.1812709 -0.013359135 0.049836785 0.038682017
0.0880196 0.05664085 -0.026525786 0.10281542 0.14560868 0.093943596 0.047127154 0.0073705264
0.1407162 -0.034480456 0.0034315335 0.08273224 0.12423005 -0.091526926 0.03952222 -0.016450748
-0.024262896 -0.01471177 0.13652976 -0.0051761335 -0.20119114 0.17375639 0.10573364 -0.121582605
0.049758323 -0.011069336 -0.06809099 0.03786851 0.009155129 0.16808836 0.14926688 0.004315487
0.055784874 -0.17270213 -0.16795552 -0.021720657 0.0926932 0.042212103 0.065532535 -0.08449875
-0.087929584 -0.012628256 0.032705873 0.0705989 -0.011632785 -0.005915804 0.17177783 0.021945167
-0.03279329 -0.020151546 0.06654981 0.126956 -0.058485553 -0.12000782 0.06022274 0.067380905
-0.27152553 -0.015243744 -0.070847414 0.023886785 0.20046315 0.12504002 -0.09172366 -0.00064604805
-0.05290231 0.038589075 -0.008090133 0.035085052 0.012015285 0.018078405 0.0055720783 0.06705019
-0.038323972 0.08113282 0.05944013 -0.21675216 0.0052502747 -0.017194254 -0.06680094 0.0741703
-0.20347983 -0.0034979254 -0.13422278 -0.037863676 -0.038958844 -0.017993001 -0.011474812 0.05116624
-0.087492265 0.0794054 -0.034151305 0.033119857 0.06578943 0.025761805 -0.119340055 0.08577088
0.07381206 0.2833529 -0.06353269 -0.1329535 -0.035847947 -0.08334933 -0.15669203 -0.15644456
0.12193761 0.10867656 -0.12431191 0.024838379 0.10460138 0.13967179 -0.0023214123 -0.054884627
0.067986704 -0.2066631 -0.22504713 0.17320976 -0.028940964 -0.024438195 0.06515566 0.0017534933
-0.026458893 -0.016341938 -0.025033414 -0.045943428 0.006864078 0.05095624 0.034124147 -0.0461132
0.08665885 0.11544586 -0.22674076 -0.02095897 0.040954757 0.036866006 0.16555673 -0.15853119
0.10893032 -0.029698083 0.0008435687 0.042312898 0.06447935 -0.08067445 0.057002716 0.05655811
0.027840396 -0.091969036 0.019376358 -0.0012861758 -0.15176105 0.19711056 0.15990943 -0.1114752
-0.019198216 -0.05532759 -0.1287911 -0.07646641 -0.08305608 0.14765832 0.04227623 0.013057311
-0.01501119 -0.15199172 -0.12892304 -0.07614425 0.23829824 0.12976195 -0.046204116 0.011357807
0.04498055 0.058232334 -0.0028979715 -0.053894993 -0.074354224 0.05580678 0.08528418 -0.03426015
00000000: f353 c83d 3a5b de3d 20ad b93d 153d 553d
00000010: 1774 e5bc 02a7 c23b 227d db3d 6e86 463d
00000020: bcba b2bc cdeb e0bd 03f8 bebd 4d62 2c3d
00000030: c402 5a3d cace 083d 71bf 6ebd 06e4 a53c
00000040: 9b3e 27bd 605a 00bc 8b34 b53d 8943 31bd
00000050: ae1f 5f3d 0cb3 67bd da94 863c 1c2c 44bd
00000060: fb20 68bd cb84 3b3e 04ad 433e 37e0 1bbd
00000070: 3dc5 8fbc f66c 963d 1934 1d3d f501 71be
00000080: 196d 05be 86c2 243d ebdb cebd 4fa3 a3bd
00000090: 2151 5c3d a2ce fe3c 6430 5d3c f5f1 743d
000000a0: bef9 f33a 362f 5b3e 5436 42be 234e 82bd
000000b0: 0f99 9bbc d610 513d 14e4 a03d dbfd 8dbd
000000c0: 6153 75bd 3c6f b33d 0980 74bd 5b17 66be
000000d0: 93ba 833d f75e e6bd 23c4 25bd 39c1 d6bd
000000e0: ac39 173e 8dba 34bd 462d d3bc 4b80 26bc
000000f0: f5a7 2c3e a064 923d dfbf 0cbc b6f6 9e3b
00000100: bffd 733c 658a 05be 7721 84be 336f fa3d
00000110: cbfc 6c3d e066 773c 552b d03d 0cfb 87bc
00000120: c94b f93d e171 50bc 248c d6bc ad81 5fbd
00000130: 149f 393e 46e0 5abc a821 4c3d 0971 1e3d
00000140: 9f43 b43d 3c00 683d 9b4c d9bc e490 d23d
00000150: 711a 153e 8065 c03d 6708 413d 7584 f13b
00000160: e817 103e 613b 0dbd 94e3 603b 856f a93d
00000170: 536c fe3d 7872 bbbd 0de2 213d b8c3 86bc
00000180: fbc2 c6bc a309 71bc 75ce 0b3e 8e9c a9bb
00000190: 0d05 4ebe 32ed 313e e18a d83d 4d00 f9bd
000001a0: 62cf 4b3d 295c 35bc 4a73 8bbd 031c 1b3d
000001b0: 65ff 153c 5b1f 2c3e 6bd9 183e ee68 8d3b
000001c0: ae7e 643d d4d8 30be 88fc 2bbe 85ef b1bc
000001d0: efd5 bd3d 99e6 2c3d ec35 863d ae0d adbd
000001e0: 6d14 b4bd bfe6 4ebc 98f6 053d 2896 903d
000001f0: 7097 3ebc 5cd9 c1bb 87e6 2f3e 5ac6 b33c
00000200: 4252 06bd db14 a5bc 444b 883d c100 023e
00000210: 8c8e 6fbd a9c6 f5bd 1fac 763d 00ff 893d
00000220: 6505 8bbe e5c0 79bc 7318 91bd 38ae c33c
00000230: 3646 4d3e 7e0a 003e 9dd9 bbbd 8d5b 29ba
00000240: 18b0 58bd 940f 1e3d 7a8c 04bc 58b5 0f3d
00000250: c2db 443c 2a19 943c fb95 b63b 9c51 893d
00000260: 99f9 1cbd f728 a63d 7e77 733d 47f4 5dbe
00000270: 7f0a ac3b f7da 8cbc eece 88bd 99e6 973d
00000280: 045d 50be 733d 65bb b271 09be f116 1bbd
00000290: 4f93 1fbd 0f66 93bc da00 3cbc b193 513d
000002a0: 252f b3bd 4c9f a23d 3de2 0bbd b0a8 073d
000002b0: 9cbc 863d 6c0a d33c 8f68 f4bd a5a8 af3d
000002c0: c72a 973d a213 913e 6d1d 82bd f624 08be
000002d0: 4cd5 12bd 0eb3 aabd e073 20be 0133 20be
000002e0: 6dba f93d d191 de3d 3e97 febd db79 cb3c
000002f0: 4039 d63d 1f06 0f3e d622 18bb b4ce 60bd
00000300: 9d3c 8b3d 7e9f 53be c172 66be e65d 313e
00000310: 9a15 edbc 9c32 c8bc 5570 853d 79d5 e53a
00000320: 52c0 d8bc 87df 85bc e012 cdbc 2d2f 3cbd
00000330: 0fec e03b 7eb7 503d c3c5 0b3d 32e1 3cbd
00000340: 327a b13d e16e ec3d bb2e 68be 25b2 abbc
00000350: 2dc0 273d cf00 173d b487 293e 0056 22be
00000360: dc16 df3d 6549 f3bc f022 5d3a 4a50 2d3d
00000370: c00d 843d a538 a5bd ae7b 693d 7aa9 673d
00000380: 8b11 e43c 435a bcbd 2bbb 9e3c e694 a8ba
00000390: 4067 1bbe 5ad7 493e 4cbf 233e 1c4d e4bd
000003a0: 9445 9dbc 2f9f 62bd d0e1 03be 6c9a 9cbd
000003b0: 4e19 aabd be33 173e d729 2d3d 55ee 553c
000003c0: 7ff1 75bc b8a3 1bbe 6704 04be 84f1 9bbd
000003d0: 7404 743e 51e0 043e 8740 3dbd 1816 3a3c
000003e0: 863d 383d 0785 6e3d e5eb 3dbb ffc0 5cbd
000003f0: 0747 98bd a695 643d 79a9 ae3d 5f54 0cbd

fc.4.bias f4 [128]
0.055802424 -0.09042355 -0.065726854 0.013750909 -0.054288115 -0.0018906004 -0.0462306 0.13816284
-0.06738302 -0.09748022 0.026103323 0.00991981 -0.09620725 -0.06916034 0.31350175 -0.005658299
0.013084107 0.0874456 0.022740427 -0.056614507 0.054882795 -7.75078e-05 -0.06341044 -0.08609312
-0.08681477 0.115688935 0.05925168 0.034890246 -0.035348326 -0.097047865 -0.03259799 0.043794263
-0.043799434 0.09650761 -0.06442043 -0.041023243 0.083546445 0.08797186 -0.109007575 -0.06688972
0.088119425 -0.048753325 -0.041756075 0.13988557 0.1094166 0.12518491 0.10894545 0.08132506
0.13576342 0.037569873 -0.18817405 0.03635088 -0.111160055 -0.07679825 0.04555023 -0.06945215
0.056173485 0.07342489 -0.014079771 0.0563201 -0.06824457 0.026859583 -0.021805506 0.027505323
-0.050677024 0.015538263 0.014874869 0.06838157 -0.06556695 0.034391835 0.06955902 0.06993287
0.027705649 0.15211359 -0.08657317 0.0021969453 0.0044262656 0.09753578 -0.09526597 -0.15295163
-0.05139633 0.037292134 0.043330126 -0.09168334 -0.019572578 -0.015602409 -0.04514286 0.1728918
0.01747427 -0.09264108 0.08921327 0.11199647 0.009306382 -0.02274924 0.022613976 -0.10990114
-0.024086798 -0.08690901 0.09139431 -0.027455771 -0.06780303 0.0758446 -0.045588266 -0.07862508
-0.013657228 0.0022742162 -0.16101372 0.05560128 0.09719037 0.07311522 -0.12678014 -0.07602408
-0.106995866 0.16946004 0.112939626 0.017159363 -0.08520471 -0.120595075 0.06871382 -0.1390859
0.018736346 0.029293021 0.086623736 0.031996336 0.16778529 -0.06397753 0.07354762 0.08100049
00000000: 1591 643d fb2f b9bd cd9b 86bd 7e4b 613c
00000010: 375d 5ebd 06ce f7ba 4c5c 3dbd 8f7a 0d3e
00000020: 1c00 8abd b6a3 c7bd a3d6 d53c b386 223c
00000030: 4f08 c5bd f0a3 8dbd 4d83 a03e 4169 b9bb
00000040: b95e 563c ae16 b33d 224a ba3c 9de4 67bd
00000050: c8cc 603d af8b a2b8 55dd 81bd 9751 b0bd
00000060: f1cb b1bd 52ee ec3d e4b1 723d 13e9 0e3d
00000070: 68c9 10bd 08c1 c6bd 7885 05bd 9d61 333d
00000080: 0967 33bd c8a5 c53d dcee 83bd fd07 28bd
00000090: 661a ab3d 972a b43d 5d3f dfbd 7afd 88bd
000000a0: f577 b43d 91b1 47bd 6b08 2bbd 2a3e 0f3e
000000b0: cf15 e03d 7930 003e cb1e df3d c18d a63d
000000c0: 9105 0b3e dee2 193d b3b0 40be a9e4 143d
000000d0: e2a7 e3bd 6748 9dbd e192 3a3d ee3c 8ebd
000000e0: 2b16 663d ca5f 963d d7ae 66bc e8af 663d
000000f0: cfc3 8bbd a108 dc3c 76a1 b2bc d852 e13c
00000100: b692 4fbd 3394 7e3c b9b5 733c a30b 8c3d
00000110: f747 86bd 74de 0c3d f674 8e3d f738 8f3d
00000120: f5f6 e23c aac3 1b3e 464d b1bd a0fa 0f3b
00000130: 350a 913b d7c0 c73d ce1a c3bd 5a9f 1cbe
00000140: f584 52bd a3bf 183d ee7a 313d 7ac4 bbbd
00000150: ac56 a0bc 3fa1 7fbc b8e7 38bd 8c0a 313e
00000160: 3326 8f3c 9bba bdbd 72b5 b63d 685e e53d
00000170: cc79 183c 9d5c babc f240 b93c d913 e1bd
00000180: ad51 c5bc 5afd b1bd f12c bb3d edea e0bc
00000190: 51dc 8abd 6a54 9b3d c3ba 3abd 3006 a1bd
000001a0: 91c2 5fbc 040b 153b c8e0 24be 2bbe 633d
000001b0: bf0b c73d 6fbd 953d a7d2 01be 83b2 9bbd
000001c0: a620 dbbd ef86 2d3e e44c e73d cb91 8c3c
000001d0: cf7f aebd 8dfa f6bd d5b9 8c3d 896c 0ebe
000001e0: f77c 993c ebf7 ef3c c967 b13d 970e 033d
000001f0: e8cf 2b3e a706 83bd 22a0 963d 96e3 a53d

fc.6.weight f4 [4, 128]
0.081057616 0.11041709 0.12742198 0.12929091 0.022116384 -0.0010847562 -0.0068221195 -0.11036191
0.071173266 0.10979465 0.07931223 0.09335998 0.1278194 -0.036318373 0.12702052 -0.052842904
0.09698526 0.07918633 0.010731997 0.057446197 -0.0009726646 -0.01616182 -0.18143825 0.09400082
0.043764133 -0.17981716 0.0049900995 -0.034041703 -0.03646799 0.11959357 0.14958307 -0.078804456
-0.111799546 -0.027556665 -0.05738267 0.12866981 -0.1053328 0.054192185 -0.07235551 0.06426197
0.11095048 0.0007502541 -0.009562772 -0.16097818 -0.15268728 0.049346868 -0.14834425 -0.033784565
0.02571804 -0.1555746 0.0495599 -0.09147269 -0.0877427 0.08006231 0.05987523 0.078347996
-0.14172651 -0.05428014 -0.011686734 -0.055878684 -0.047556404 -0.14356025 -0.19757263 0.14565693
0.061192095 0.021278894 -0.11366145 -0.03656034 0.07362834 0.20066354 0.021696217 0.024701828
0.048258565 -0.032773465 0.11544572 0.12012415 0.073732406 -0.105328 0.1689672 0.11156554
-0.062512815 0.040728524 0.010025813 -0.08067036 0.11596128 -0.01732643 -0.009268733 -0.23054712
0.002798918 0.11448936 -0.23437932 0.03772183 0.06943526 -0.010339172 -0.09295349 0.0002903128
0.10577599 0.020349624 -0.052242808 -0.06887145 -0.05403736 -0.007765265 0.05939594 0.05504211
0.06935737 0.05936142 0.0475703 0.07029176 -0.21212475 -0.03813588 0.012588487 0.044465177
0.14616126 -0.12868726 0.118370704 0.005831944 0.023457505 0.0852188 0.018974215 0.026365895
-0.051664725 0.1597928 -0.035060354 -0.016879104 0.06898762 0.024806472 -0.01959144 0.11020615
0.060389973 0.03832518 -0.02234492 -0.07015847 -0.018994393 0.059784725 -0.033381257 -0.08830671
-0.03843973 0.018872581 -0.056834526 0.021325715 -0.009710265 -0.028624484 -0.48825788 -0.041518286
0.08430788 -0.12604953 -0.014447643 -0.12777954 -0.13816394 0.12504289 -0.019281201 0.044475738
0.012640189 -0.17621453 -0.15191595 -0.0064983466 0.005954784 -0.03262781 0.061122973 -0.0973788
-0.036666125 0.072398886 -0.044976536 0.1073598 0.1809694 -0.17925963 0.013956168 -0.033032857
0.109462224 0.0662231 0.08992641 -0.07725621 -0.02177369 -0.20357735 0.013698342 -0.04610077
0.06120524 -0.026821064 -0.1314578 0.033020202 0.06944906 0.06339757 0.012952353 0.04145638
0.055073675 0.05433257 -0.08740186 0.12961727 0.021917336 -0.032475375 -0.11517631 -0.17530237
0.0805972 0.047860786 0.20941691 -0.04046497 -0.049565736 -0.026798932 -0.14537863 -0.08049981
0.07715962 -0.30167663 0.00412616 -0.041643653 0.030074466 -0.1419013 0.15094474 -0.060555786
-0.01370412 -0.041866764 -0.17183095 0.017455557 -0.07032167 -0.07415583 -0.011858623 -0.027443945
-0.037915956 -0.07034003 0.019010114 0.057445537 -0.12600034 0.048061334 0.033309717 0.07272573
0.12810399 -0.12593749 -0.27270168 -0.036590844 0.028393077 0.055425584 0.06302475 -0.04477296
-0.09219551 -0.020987049 -0.02695338 -0.04221412 -0.0048826993 -0.028668705 0.04530705 -0.017054567
0.020413712 0.022332167 -0.0336306 0.015329505 0.00881989 -0.21468829 -0.046691645 -0.013425288
-0.09872907 0.037770126 -0.05660121 0.030280594 -0.31940702 -0.12326087 0.096734 -0.27335095
00000000: 8901 a63d 5b22 e23d e87a 023e d664 043e
00000010: 6b2d b53c 612e 8eba 168c dfbb 6d05 e2bd
00000020: 4ac3 913d 04dc e03d 736e a23d 8433 bf3d
00000030: 17e3 023e 93c2 14bd ab11 023e cd71 58bd
00000040: 35a0 c63d 712c a23d 42d5 2f3c b44c 6b3d
00000050: 6bfa 7eba cb65 84bc f3ca 39be 8083 c03d
00000060: 0542 333d fd21 38be fd83 a33b 506f 0bbd
00000070: 765f 15bd 79ed f43d 4e2c 193e 3b64 a1bd
00000080: 29f7 e4bd 84be e1bc 170a 6bbd 05c2 033e
00000090: b9b8 d7bd a0f8 5d3d 202f 94bd c89b 833d
000000a0: 013a e33d b3ac 443a 2cad 1cbc 77d7 24be
000000b0: 0e5a 1cbe f11f 4a3d 8ee7 17be af61 0abd
000000c0: a4ae d23c f34e 1fbe 52ff 4a3d 0956 bbbd
000000d0: 72b2 b3bd b5f7 a33d bb3f 753d ea74 a03d
000000e0: c120 11be da54 5ebd b779 3fbc 0ce1 64bd
000000f0: 81ca 42bd 7501 13be 7b50 4abe 1727 153e
00000100: 90a4 7a3d 1351 ae3c 56c7 e8bd 4cc0 15bd
00000110: 75ca 963d be7a 4d3e 44bc b13c 7d5b ca3c
00000120: c6aa 453d 783d 06bd ce6e ec3d a603 f63d
00000130: 0401 973d 35b6 d7bd bd05 2d3e 797c e43d
00000140: b806 80bd f4d2 263d 4f43 243c 8036 a5bd
00000150: 1c7d ed3d 28f0 8dbc e2db 17bc 8b14 6cbe
00000160: 0d6e 373b 6679 ea3d 2201 70be 3582 1a3d
00000170: 1334 8e3d a165 29bc 665e bebd 2035 9839
00000180: 15a1 d83d 41b4 a63c 8efc 55bd 7a0c 8dbd
00000190: 4756 5dbd c473 febb 2849 733d d673 613d
000001a0: 3d0b 8e3d f624 733d 13d9 423d 20f5 8f3d
000001b0: 3b37 59be 5e34 1cbd f13f 4e3c 1e21 363d
000001c0: 4cab 153e 98c6 03be 576c f23d e419 bf3b
000001d0: f429 c03c 3287 ae3d d06f 9b3c 4afd d73c
000001e0: 649e 53bd b9a0 233e 729b 0fbd 0c46 8abc
000001f0: 6249 8d3d f136 cb3c 3a7e a0bc c3b3 e13d
00000200: 7a5b 773d ddfa 1c3d b20c b7bc 3eaf 8fbd
00000210: 219a 9bbc d4e0 743d c9ba 08bd 26da b4bd
00000220: fa72 1dbd ac9a 9a3c 52cb 68bd 44b3 ae3c
00000230: ce17 1fbc e57d eabc f0fc f9be 140f 2abd
00000240: 9ca9 ac3d 2113 01be cfb5 6cbc a4d8 02be
00000250: d97a 0dbe 3e0b 003e 9cf3 9dbc 312c 363d
00000260: cc18 4f3c 9571 34be db8f 1bbe 15f0 d4bb
00000270: 5920 c33b bda4 05bd 155c 7a3d 896e c7bd
00000280: 382f 16bd de45 943d 5139 38bd 74df db3d
00000290: 0b50 393e d68f 37be 69a8 643c 764d 07bd
000002a0: bb2d e03d fa9f 873d 562b b83d 8138 9ebd
000002b0: bd5e b2bc 9576 50be 036f 603c 29d4 3cbd
000002c0: 59b2 7a3d d9b7 dbbc e09c 06be 3140 073d
000002d0: 4f3b 8e3d 96d6 813d 1b36 543c 2ace 293d
000002e0: ef94 613d d48b 5e3d bfff b2bd 64ba 043e
000002f0: fc8b b33c e604 05bd 8fe1 ebbd 7782 33be
00000300: 2510 a53d ac09 443d 6371 563e 99be 25bd
00000310: 7105 4bbd 6f89 dbbc 23de 14be 16dd a4bd
00000320: dd05 9e3d 5c75 9abe bd34 873b 8992 2abd
00000330: ba5e f63c 934e 11be 4291 1a3e 5809 78bd
00000340: 3f87 60bc 7c7c 2bbd 74f4 2fbe f5fe 8e3c
00000350: cf04 90bd 03df 97bd ab4a 42bc 20d2 e0bc
00000360: c34d 1bbd 6f0e 90bd 19bb 9b3c 034c 6b3d
00000370: 3c06 01be f6db 443d c56f 083d 3af1 943d
00000380: b12d 033e c2f5 00be 8e9f 8bbe 48e0 15bd
00000390: 9998 e83c f005 633d 1f13 813d da63 37bd
000003a0: 00d1 bcbd 08ed abbc 56cd dcbc b7e8 2cbd
000003b0: 0dff 9fbb a2da eabc e393 393d 05b6 8bbc
000003c0: a83a a73c f3f1 b63c 3dc0 09bd 9b28 7b3c
000003d0: 4d81 103c 3fd7 5bbe bd3f 3fbd bdf5 5bbc
000003e0: 7732 cabd d9b4 1a3d acd6 67bd 020f f83c
000003f0: 5189 a3be 3270 fcbd 7a1c c63d a8f4 8bbe

fc.6.bias f4 [4]
-0.022839563 0.027995659 0.17110038 -0.083983265
00000000: 091a bbbc 2757 e53c f034 2f3e 6bff abbd
