value.pth (torch, 138491 bytes, 7 tensors)

fc.0.weight f4 [128, 6]
000000 89 71 a9 3e 06 ae a2 3e 8e 0f 3b be 1f cd 95 3e
       0.33094433 0.31773394 -0.18267652 0.29258057
000010 1e 04 52 3e 0f c1 3b be 47 0c 8f be bf 1e 86 be
       0.20509383 -0.18335365 -0.27939054 -0.26195332
000020 f2 1f 48 bc a3 2e b4 be e9 94 d6 be b1 06 5e bd
       -0.012214648 -0.3519183 -0.41910484 -0.0542056
000030 6c 5b af be 53 2c 37 3e 31 8c 07 be b9 ab 81 3e
       -0.34249437 0.17888002 -0.13237073 0.25326326
000040 6c 39 a9 be 4c f6 5d bd cb 13 48 be be 99 92 3d
       -0.33051622 -0.054189965 -0.195388 0.0715823
000050 25 90 a9 3d 0b 64 c0 3e b1 56 59 3e 7b 67 1f be
       0.082794465 0.37576327 0.21224476 -0.15566818
000060 7a e2 b8 3e 25 30 73 be eb 4a cf be 21 07 98 3e
       0.36110288 -0.23748834 -0.40486845 0.2969294
000070 ca 99 74 3e 51 6e b8 bd 37 d3 46 3c 62 f6 b4 be
       0.23886791 -0.09005416 0.0121353185 -0.35344225
000080 08 9d e9 3e 81 53 80 bc 3e 22 20 3e cd d0 0e be
       0.45627618 -0.015664818 0.15638062 -0.13946839
000090 e6 ef 8a be 35 ca 03 bf 86 6f 43 3e 9b 20 6e be
       -0.27136153 -0.5148042 0.19085512 -0.23254625
0000a0 d3 7d 71 be 5d 4c e6 be 60 47 51 bc 01 2b 17 3e
       -0.23583154 -0.44980136 -0.012773365 0.14762498
0000b0 88 91 6c bd 16 fe 05 be 8d b8 d8 bd 08 27 15 bf
       -0.057755977 -0.13085207 -0.10582075 -0.5826268
0000c0 90 d4 ac be ec 4e 2b be 59 8f d8 3c 68 df 78 3e
       -0.33755922 -0.16729325 0.026435541 0.24303973
0000d0 c4 60 57 be b2 91 f1 3e d4 48 9d 3f 1f 44 2f 3d
       -0.21033007 0.4718147 1.228785 0.042789575
0000e0 12 55 26 3f b6 e3 9c bd 0f a3 9e 3e 7b 42 09 3f
       0.64973557 -0.0766062 0.3098378 0.53617066
0000f0 81 e0 e8 bd be 53 04 3e 7d c6 3e 3e a7 88 70 be
       -0.11370946 0.1292257 0.18630405 -0.23489629
000100 3a 74 61 3e 54 2b e4 be ba be 0b 3e 86 42 02 3d
       0.22016993 -0.44564307 0.13646975 0.031801723
000110 ec 5c 8b 3e db ac 7b be 1f ee 20 3e b1 c4 91 be
       0.2721933 -0.24577658 0.15715836 -0.28470376
000120 6c 85 3d 3e 46 29 11 3e 99 d5 f2 bd a4 4e 93 3e
       0.18507928 0.14175901 -0.11857147 0.28770936
000130 14 3d 42 3e e1 4f ae 3d 6f 46 91 bc c6 61 8f be
       0.18968612 0.085113294 -0.01773378 -0.28004283
000140 15 59 1f be d9 f3 bd be bb 4c 78 be ef ca e1 be
       -0.15561326 -0.37100103 -0.2424802 -0.4410014
000150 b5 6e 2f 3d f4 2d 4e bd d8 c2 b4 3e 8a 58 48 be
       0.042830188 -0.050336793 0.35304904 -0.19565025
000160 ec b1 d4 3e da 3e 59 3e fe 87 45 3e fe eb cb bd
       0.41541994 0.21215382 0.19290158 -0.09957121
000170 02 a2 c6 be c6 e7 e0 3c 07 fa 29 be 3e 6a ce be
       -0.38795477 0.027454268 -0.16599284 -0.4031543
000180 3d a0 aa 3d a9 27 1c 3d 56 72 67 be f9 98 9e 3e
       0.08331344 0.03812376 -0.2260221 0.30976084
000190 d6 4e 8b 3d dc cd 43 3e 20 d7 33 be 8e 38 c9 3e
       0.06802146 0.19121498 -0.17562532 0.3930096
0001a0 8f c6 48 be 87 d8 97 be 7f 40 b1 3e 36 1c ac be
       -0.19606994 -0.29657385 0.3461952 -0.33615273
0001b0 44 14 8b 3d 9a 26 be bc 05 12 e2 be 44 2f 74 be
       0.06790975 -0.023211766 -0.44154373 -0.23846155
0001c0 09 80 8c 3e 46 95 a4 bd 20 74 11 3e 9c c5 a6 be
       0.27441433 -0.08036284 0.14204454 -0.3257264
0001d0 70 6b 54 3e ae d0 54 3e 84 f3 fe 3d 4e 45 ee 3b
       0.20744109 0.2078273 0.12448791 0.0072714454
0001e0 c5 97 c5 be 7c 98 87 3d a5 fd 82 be a5 2b 66 3e
       -0.38592353 0.06620881 -0.2558414 0.22477587
0001f0 46 e5 5a be eb bf 49 bd c3 de 8c bd ad 6e 14 3e
       -0.21376523 -0.049255293 -0.06878426 0.14495344
000200 35 cd 5c be aa ad a4 bd c9 0c 73 be d9 11 3f be
       -0.21562655 -0.08040936 -0.23735346 -0.18659152
000210 4a 31 3a 3b 26 ba 98 3e f4 94 77 be c2 21 ab 3e
       0.0028410726 0.2982952 -0.24177915 0.33424193
000220 ff 7e a9 3e 94 d9 e9 3b 96 66 37 be a4 c6 be 3e
       0.33104703 0.007136533 -0.17910227 0.37260926
000230 f5 37 1a 3e 51 53 4b 3e 97 5c 06 bd a0 99 f0 bc
       0.15060408 0.19856001 -0.032803144 -0.02937013
000240 b6 d8 9f be 22 98 99 3e f1 4c 68 be 1c d2 b9 be
       -0.31220025 0.2999888 -0.22685601 -0.36293113
000250 8b 35 c5 3e 57 3f 64 bd f2 3e a0 3e b7 a2 97 3e
       0.38517413 -0.055724468 0.31298023 0.2961633
000260 9f f1 1e be 26 cf a0 3e 28 ed 14 be 2c b2 88 3d
       -0.15521859 0.31408042 -0.14543593 0.066746086
000270 e2 bc 2b 3e 5e 4b 79 be 4a d7 42 3e c8 0d 98 be
       0.16771272 -0.24345157 0.19027439 -0.29698014
000280 a7 eb 83 be 5d a8 b7 be 29 a5 a1 be 42 81 de bd
       -0.25765726 -0.35870638 -0.3157132 -0.10864498
000290 aa 1d 9d 3e 7a 18 aa 3e a0 03 23 3e 95 90 a2 be
       0.30686694 0.332218 0.15919352 -0.31750932
0002a0 00 4b cb be df 62 44 3e 2f 0f 4a bd c9 7a 4f be
       -0.39705658 0.19178341 -0.049330886 -0.20261683
0002b0 39 b5 3a be af 29 18 3e 5b 54 c4 3d 0f c0 34 c0
       -0.18233193 0.14859651 0.09586402 -2.8242223
0002c0 11 b7 49 be e5 13 68 3d 6c 9f 49 c0 bc 8e b7 3c
       -0.1969874 0.056659598 -3.1503553 0.022406928
0002d0 3e dc 0a be 89 f2 f3 3e 00 c5 9a 3e d8 28 bb be
       -0.13560578 0.47645977 0.30228424 -0.365546
0002e0 5c 64 2f be ef 44 68 3e 26 dd 29 3d a8 8f 98 be
       -0.17128128 0.22682546 0.04147067 -0.297971
0002f0 75 ec 02 bd a8 35 12 bf 67 a8 80 bd fc b0 df bd
       -0.031963784 -0.5711312 -0.0628212 -0.10922429
000300 f1 59 90 ba 58 3f af be 31 b4 e2 be 24 06 34 be
       -0.0011013133 -0.34228015 -0.442781 -0.17580467
000310 2e 72 b5 3e 4c eb 5c bd 9e 49 40 3f c9 5c 83 3e
       0.35438675 -0.053935334 0.7511233 0.25656727
000320 68 80 f6 3e 41 2d 02 3f 61 e2 14 bd e6 4d 0b 3e
       0.4814484 0.508503 -0.036348704 0.13603935
000330 3c c7 0d bd ef 6e d7 be 21 23 86 3e f4 04 1d bd
       -0.034613833 -0.42076823 0.26198676 -0.0383348
000340 f1 1c 62 3e 16 fe 31 be ed d7 bb 3e 12 e1 ca 3e
       0.22081353 -0.17382082 0.36688176 0.3962484
000350 31 60 b9 be 27 60 a5 be 4a 33 9b 3e ba 9e 42 be
       -0.362062 -0.3229992 0.30312568 -0.19005862
000360 68 c3 90 be ff f0 97 3e f5 69 de be c4 99 10 be
       -0.28274083 0.29676053 -0.43440214 -0.14121157
000370 df 9b d8 be 74 dc 76 3e 1e 09 57 be b1 95 2d 3e
       -0.4230642 0.24107534 -0.20999572 0.16951634
000380 07 b1 40 be 75 77 fa 3d 6e e3 ee bb 91 e4 34 bd
       -0.1881753 0.12229816 -0.0072902953 -0.04416329
000390 86 b5 ed be 2f 68 8f be ce 1d ee bc 60 d8 13 be
       -0.46427554 -0.28009173 -0.029066946 -0.1443801
0003a0 1a 35 18 3d a5 3e 99 3e f8 eb 30 be cf 97 55 be
       0.037160017 0.29930606 -0.17277515 -0.20858692
0003b0 53 63 8a be b9 29 86 be 18 3e 9d bd 17 43 19 be
       -0.27028903 -0.26203707 -0.07677859 -0.14966999
0003c0 fc 46 8d be 63 a3 8c be ae a3 92 bc 6d f7 14 bd
       -0.2759322 -0.27468404 -0.017900314 -0.036368776
0003d0 58 f3 c5 be c6 4d 11 be ef be b3 3e 06 43 a1 3e
       -0.3866222 -0.14189824 0.35106608 0.31496447
0003e0 34 b1 d2 be 8a d8 f8 bd a3 0d cc be 87 c8 b0 be
       -0.4115082 -0.121506765 -0.39854154 -0.3452799
0003f0 50 4d e6 3d b2 4f e7 3d 07 76 c2 be e0 ad 7e be
       0.11245215 0.112944975 -0.37980673 -0.24871016

fc.0.bias f4 [128]
000000 0e 5b 9e be 88 81 dd bd 90 3a b7 bb 9e e2 32 3d
       -0.30928844 -0.10815722 -0.005591698 0.04367315
000010 71 3b f4 3d e6 a3 94 bd 56 86 a7 be e4 65 b9 be
       0.119254 -0.07257824 -0.32719678 -0.3621055
000020 1c 2f 3a 3f 87 be 0e bf ca f6 d4 bd e8 a1 31 3e
       0.72728133 -0.5575947 -0.10398634 0.17346919
000030 a0 b7 ba 3e 9d 30 7c be 48 f5 0d be 5c bc a1 3e
       0.3646822 -0.2462792 -0.13863099 0.3158902
000040 36 20 a1 3e cb f5 55 3e 1d 30 f1 3e e1 0f b6 3d
       0.31469887 0.20894544 0.4710702 0.088897474
000050 1c bf d1 bd 77 1d a3 3e d0 b4 92 be ce ed 35 3e
       -0.10241529 0.31858417 -0.28653574 0.17766497
000060 de 28 b5 3e fb 8e db be 18 38 b3 3d a7 cb 25 3e
       0.35382742 -0.42882523 0.087509334 0.16190968
000070 e3 b7 65 3e d0 f8 4b 3f b5 65 97 3e 1b b3 63 bd
       0.22433428 0.7967653 0.29569784 -0.05559073
000080 cb 80 5b 3e 20 fb 05 bf 16 34 a0 bd 8c 33 e4 3c
       0.2143585 -0.5233631 -0.078224346 0.02785661
000090 a4 b4 f5 3d d7 df 95 be 33 33 08 3f 55 2f d6 3d
       0.11997345 -0.2927234 0.53203124 0.104582466
0000a0 7f 5f 45 be 7f f1 e6 bb ae e2 16 3e 23 7f 89 3e
       -0.1927471 -0.0070478315 0.14734909 0.2685481
0000b0 aa 8b 81 3d c2 0e 42 3e 4f 6f 30 3e 72 1a 05 3e
       0.06325467 0.18950942 0.17229961 0.1299837
0000c0 ee 18 a4 3d 95 a2 d5 3e 5f ec da 3d 54 b0 9d be
       0.080125675 0.41725603 0.106896155 -0.3079859
0000d0 cd 1c 25 3e bc e1 eb bd 79 16 30 3f d1 d8 71 be
       0.16124268 -0.11517665 0.6878429 -0.23617865
0000e0 a7 aa f8 be 39 9f 95 3e 4d 16 bb bc 13 a8 9d be
       -0.48567697 0.2922304 -0.022837782 -0.30792293
0000f0 88 79 3c 3e 54 34 4b be a4 d7 51 3e e6 25 45 3e
       0.18405735 -0.1984418 0.20492417 0.19252738
000100 93 42 9f 3e b5 10 a2 be 66 b7 62 3d 89 4f 2a 3d
       0.3110548 -0.3165337 0.055350684 0.041579757
000110 53 59 49 be af 31 11 3c 1e d8 03 3e b0 76 8a be
       -0.1966298 0.008861943 0.12875411 -0.27043676
000120 81 be 95 3a 33 1b 19 3e d4 9b a2 be 2a f8 dd be
       0.0011424572 0.14951782 -0.31759512 -0.43353397
000130 cc ae 25 3f 78 63 6b 3e d3 08 0d be b9 56 47 3f
       0.64719844 0.22987163 -0.13772897 0.77866703
000140 23 14 e1 3e ae 38 b0 3e 66 fb 9a 3e c8 b7 e0 3e
       0.43960676 0.34418243 0.30269927 0.43890214
000150 c5 8e 32 be 91 f9 28 3f db 99 04 3e e3 f4 66 bd
       -0.17437275 0.6600581 0.12949316 -0.056385886
000160 19 2a b7 3e c1 b9 88 be b3 36 b3 bc f0 51 0d bd
       0.35774305 -0.2670422 -0.021876669 -0.03450197
000170 f4 31 0a 3e 73 8d f1 3e d8 95 8b 3e 29 6c 28 be
       0.13495618 0.4717823 0.2726276 -0.1644751
000180 63 d5 38 3e 33 15 06 be 9a 7d 45 3f 6c 5e b3 3e
       0.1805015 -0.13094024 0.7714478 0.35032976
000190 88 44 09 3f 50 20 b0 3e e5 a0 06 bf be 6a 06 be
       0.53620195 0.34399652 -0.52589256 -0.13126656
0001a0 43 3f 79 bc 5a c2 a0 3e a4 38 28 3e 8f 3f 24 3e
       -0.015212837 0.31398278 0.16427857 0.1603987
0001b0 60 46 d6 bc 67 89 0f 3f e7 60 39 3f 34 a2 3f be
       -0.026156604 0.56069034 0.72413486 -0.1871422
0001c0 a6 5d dd bd b8 05 c7 3e 4c 93 74 3e 8a e6 0b 3e
       -0.10808878 0.3887155 0.23884314 0.13662162
0001d0 35 f7 96 3e d4 47 e8 bd ee 25 0c bf 56 41 d4 bd
       0.2948548 -0.11341825 -0.54745376 -0.10364024
0001e0 02 87 bb be f8 82 92 bd 1e 64 6d be fe 17 76 be
       -0.3662644 -0.071538866 -0.23182723 -0.2403259
0001f0 3f f3 b8 3d 05 5b 4c 3c 1f cf 1c 3e fd 01 a4 3e
       0.090307705 0.012472873 0.15313385 0.32032767

fc.2.weight f4 [128, 128]
000000 e9 09 f7 3b 30 c2 23 3e 20 7a a6 3d 99 44 ec bc
       0.007539023 0.15992045 0.08128762 -0.028841304
000010 6a de 3e bd 14 46 af 3d 78 5d 3b 3e e8 da 89 3e
       -0.04659883 0.08558288 0.18297374 0.26924825
000020 36 32 23 bf 52 a4 08 bc e3 5c a8 3d d4 2e 25 bd
       -0.6374849 -0.008339958 0.08220842 -0.040327862
000030 52 33 64 3c 90 a1 1b 3e 44 76 f1 bd 11 d8 23 3e
       0.013928251 0.1519835 -0.117901355 0.16000392
000040 82 4b bd bd be 87 b9 3d f6 fe bf 3c d6 4f 6f bd
       -0.092429176 0.09059094 0.023437005 -0.058425747
000050 0d a4 3f 3d 1c e4 09 3e 0d 74 98 3d a3 a3 d0 3c
       0.04678731 0.13465923 0.0744401 0.025468653
000060 8f ca 8d bd 78 bb 21 bd 34 6e c7 3c 04 24 12 3c
       -0.069234006 -0.039485425 0.024344541 0.00891972
000070 d9 71 76 bd 2f 5a 1d bf 11 3b 57 be 6f 85 3b 3e
       -0.060167167 -0.61465734 -0.21018626 0.1831262
000080 54 6e d4 3d 1f 28 9e bd eb 22 71 3d 79 33 65 3d
       0.10372606 -0.07722496 0.05887119 0.05595729
000090 4f 66 e1 3d 92 fb ac ba 8d 47 01 bf 15 ec 75 3d
       0.11005842 -0.0013197532 -0.504998 0.0600396
0000a0 d0 59 1d 3e 11 26 8d 3e 29 47 d9 bc 00 a3 2f 3e
       0.15366292 0.27568105 -0.02652319 0.17152023
0000b0 6e a4 7b 3d cd 0e 16 be 91 7c 2e 3c 13 23 c0 3d
       0.06143611 -0.14654084 0.010649816 0.0938169
0000c0 46 0e 97 bd 6c 90 99 bc 8b 19 9f be b1 8f 4e 3e
       -0.07375769 -0.018745624 -0.31074175 0.20172001
0000d0 af 26 b6 3d 38 d8 23 3e 6e 34 60 be ef 48 c4 3d
       0.08894097 0.1600045 -0.21895 0.095842235
0000e0 91 5a b8 3e 42 84 41 bd 1d f2 1f 3e 8c 52 c3 3d
       0.36006597 -0.04724527 0.15619703 0.09537229
0000f0 57 91 25 3d 91 05 22 3c 97 7f 6a 3d 03 96 13 3e
       0.04042181 0.009889022 0.057250585 0.14412694
000100 e4 06 4d 3c ad 7d b3 bb 95 ef a9 be 9d da e2 bd
       0.01251385 -0.005477628 -0.331906 -0.110768534
000110 ef d7 46 3e a8 6f 38 bd af 62 7b 3d c8 84 ef 3d
       0.1941831 -0.04502836 0.06137341 0.11695248
000120 5c 4b ad 3d 2d 58 a2 3d e5 1b 2a 3d 96 2c 97 bc
       0.08461639 0.079269744 0.04153051 -0.018453877
000130 d9 35 80 bd d6 bd df bd 81 84 9a bc f3 c9 02 bf
       -0.062602706 -0.1092488 -0.01886201 -0.510894
000140 c8 b5 91 bd 18 0f d5 3d 33 0f 08 3d 85 b5 6a bc
       -0.0711475 0.104032695 0.03321762 -0.014325504
000150 c5 75 24 3e 44 11 e2 bd 30 af a8 3d 25 10 ef bd
       0.1606055 -0.110384494 0.08236539 -0.11673001
000160 83 38 2a bc 09 2d e9 3d db 68 36 3d 41 08 e1 bd
       -0.01038945 0.11385543 0.04453359 -0.109879024
000170 d9 5e 93 bc 8e 9f 4a bd 77 67 1c 3d 64 fd 01 3e
       -0.017989563 -0.04946857 0.03818461 0.12694317
000180 a3 a8 2b bd 20 ac d6 b9 21 1c 31 bf 85 93 1c bc
       -0.04190887 -0.00040945504 -0.69183546 -0.009556656
000190 d3 77 97 bd ca 4c cd 3d 41 a7 a6 bd 47 fa 19 3e
       -0.073959015 0.10024412 -0.0813737 0.1503688
0001a0 2d da 93 3e bf cf b3 bd 3a 85 9a bb 33 b5 84 bc
       0.28877392 -0.08779859 -0.004715589 -0.016199684
0001b0 f3 c7 ac 3d 16 b1 10 bd fe f8 c2 be db 89 72 3d
       0.08436575 -0.035325132 -0.3808059 0.0592135
0001c0 a8 fc 38 bc ba 39 30 bb bd 61 5a 3d ee eb 90 3d
       -0.011290707 -0.0026889876 0.053315867 0.0707625
0001d0 6a df d6 bd 63 d7 1e bd 66 51 e6 3b 84 55 6a bf
       -0.104918316 -0.038779628 0.0070287464 -0.91536736
0001e0 1e f8 b8 3c 84 de 11 3c 5e df 83 bd 60 c5 32 3e
       0.022579249 0.0089031495 -0.06439088 0.17458105
0001f0 26 bf f7 3d 2d 31 ae 3d 77 ed 34 bd f2 6c 18 3d
       0.120970055 0.08505473 -0.044171777 0.037213273
000200 e7 b3 84 3c 60 06 8b 3d 46 3a 14 bc d0 ca 52 3d
       0.016199065 0.06788325 -0.009047097 0.05146295
000210 d4 b8 71 3d c8 8c 1d 3e 51 70 4e 3e 56 9b cc 3d
       0.059014156 0.15385735 0.20160033 0.099905655
000220 13 75 23 bf 8f 50 12 bb b6 13 6c 3b 5b fe d3 bd
       -0.63850516 -0.0022325849 0.003602249 -0.10351249
000230 95 ee ea bd 66 fe 7e 3e c6 af fa bd 8f b0 3f 3d
       -0.11471287 0.24901733 -0.122405574 0.04679924
000240 d6 7f a2 bd e0 1c 8f 3d 56 2e 89 3c e2 d7 c9 bd
       -0.07934539 0.06987929 0.016745728 -0.098556295
000250 43 ad 84 bb 97 a8 d3 3d 09 f6 84 b9 62 a5 19 bd
       -0.0040489747 0.1033489 -0.00025360312 -0.037511237
000260 3b 0d 05 bd de 2d 14 bd ce a2 b3 3d b7 9f 70 3d
       -0.03248332 -0.036176555 0.08771287 0.058746066
000270 66 d4 56 bd 11 4e 3d bf 86 d8 ea be 59 70 bd 3d
       -0.052448653 -0.73947245 -0.4586832 0.09249944
000280 c8 d4 4f 3d 5b 49 a8 3b 90 7f f0 3b 21 b2 e6 3c
       0.050740033 0.005135698 0.0073394254 0.02816111
000290 ba 01 9c bc bd 95 22 bd 9a 02 d5 be 0f de 18 3e
       -0.019043792 -0.039693583 -0.41603547 0.14928459
0002a0 6c 99 14 3e 21 b8 55 3e 52 fd 2b bd 9c 2c 9f 3d
       0.14511651 0.20871021 -0.041989632 0.077721804
0002b0 ed 5b c7 3d 25 0e 57 bd 6e d6 6d bc 64 fe 9a 3d
       0.0973433 -0.052503724 -0.014516456 0.075680524
0002c0 c8 ae a3 3d 2b c3 92 bd 83 1a 24 bd 87 bd 32 3e
       0.07992321 -0.071661316 -0.040064346 0.17455111
0002d0 10 21 35 3d 05 36 9a 3b 56 ae e7 bd 6e d4 95 3b
       0.044220984 0.0047061467 -0.11312549 0.0045724427
0002e0 54 0f 0e 3f de 9c bb 3d 3f 73 56 3e 7c c2 ce bc
       0.5549214 0.091607794 0.209424 -0.025239222
0002f0 15 b6 bd 3d 1a 63 a3 3d 90 71 02 bd 4a 79 b3 3d
       0.09263245 0.079778865 -0.031846583 0.087633684
000300 de e0 7c 3c b6 c7 d6 3b 21 dd 51 be 02 5e 24 be
       0.015434472 0.006554569 -0.2049451 -0.16051486
000310 db 8d 1e 3e 1c 4c 40 bd b9 cf fd 3d 62 aa c6 3d
       0.15483801 -0.046947584 0.123931356 0.09700467
000320 0c ea 1f 3d 6f 92 e2 3d 3e a8 8d 3d 87 8b b2 3c
       0.039041564 0.11063086 0.06916855 0.021795047
000330 d0 83 0d be 8a a3 2c bd d4 86 11 be 75 b1 0b bf
       -0.13819814 -0.04214815 -0.14211589 -0.5456765
000340 8a b2 e6 bd 7c 43 b7 3a 63 b4 b4 3d a5 22 ce 3d
       -0.112645224 0.0013981904 0.088234685 0.10065202
000350 51 6f 06 3e 8c 74 57 bd 98 89 8e 3d d8 4c df 3c
       0.13128401 -0.052601382 0.06959838 0.027258322
000360 2e 74 9e 3c 32 e9 85 bd 92 8f 71 3d 8b 5a 8a 3b
       0.019342508 -0.06538619 0.05897481 0.0042222193
000370 eb cd 80 bc dc 0c 03 bd 79 25 d5 3c ec 6b 82 3d
       -0.01572319 -0.031994686 0.026018845 0.06368241
000380 aa 3f ca 3d a3 80 be 3d 0b 39 ee be 66 9f 48 bd
       0.09875424 0.09301879 -0.46527895 -0.04898014
000390 7f bb a7 3d 44 01 45 3d 36 1a 04 3c 31 ba 96 3d
       0.08190059 0.04809691 0.00806289 0.07359732
0003a0 ec 10 20 3e 4a fd 63 b9 b3 93 d2 3d 15 33 80 3d
       0.15631455 -0.00021742765 0.10282078 0.06259743
0003b0 b0 35 a5 3d bb cb c6 bd 0a 47 89 be 3a 7c 11 3e
       0.08066881 -0.09706827 -0.2681201 0.14207545
0003c0 61 7f 55 bd c7 2f 0f bb 5c e4 04 bd cf 50 89 3d
       -0.05212343 -0.0021848546 -0.032444343 0.06704866
0003d0 aa 50 bd bd b0 01 ec 3d 58 09 89 3d c2 f5 3c bf
       -0.09243901 0.11523759 0.06691235 -0.73812497
0003e0 cd cd 1c 3e f1 df 16 bd e8 b1 97 bc 85 4d 4f 3e
       0.15312882 -0.03683466 -0.01851745 0.20244415
0003f0 93 94 13 3d 99 9f 6b 3d eb 87 7d bd fa ef eb 3d
       0.036030363 0.05752525 -0.0618972 0.11520381

fc.2.bias f4 [128]
000000 b5 43 5b bc 93 52 37 bd aa d7 a2 3d b2 a8 81 3d
       -0.013382842 -0.044756483 0.07951291 0.06331004
000010 b3 69 6b 3c 2a 99 2a bc 90 36 ea 3e 97 f8 53 bd
       0.014368462 -0.010412494 0.45744753 -0.051750746
000020 30 3e e0 bc 7b b2 75 3d 5f d2 ff 3b e2 4b 55 bc
       -0.027373403 0.059984665 0.0078070606 -0.01301858
000030 12 68 3d bd 0d 57 ac 3c a9 f8 04 3d 5e 4a c7 bd
       -0.046241827 0.021037603 0.032463703 -0.09730981
000040 1e c9 29 3d 43 ba 20 bd fb ec a2 3c ce 95 99 3d
       0.041451566 -0.039240133 0.019888392 0.07499276
000050 9b b9 8f 3d 85 37 01 3d 7f 40 61 3d 8e d9 fa bd
       0.07017823 0.03154709 0.05499315 -0.122485265
000060 5e 60 ae bc 4a a6 a3 bc 26 7a 96 3d d2 42 a8 3d
       -0.021286186 -0.019976754 0.07347517 0.0821587
000070 86 ba 74 3d 8e 42 62 bd 7b 65 80 bc f7 fe b9 3d
       0.059748195 -0.055239253 -0.01567339 0.09081834
000080 0e 05 8e 3d 9c ed 83 3e 9e dc 11 3d 16 c6 85 bd
       0.06934558 0.2576722 0.035610788 -0.065319225
000090 29 2a 10 3e b3 15 b9 bd 87 2b c7 3d 29 46 a0 3d
       0.14078583 -0.09037342 0.09725099 0.07825882
0000a0 79 0d 81 bd f9 17 1c bc 0f 41 4e 3d 4f fa f7 3c
       -0.06301398 -0.0095272 0.050355013 0.030270724
0000b0 b5 01 9d 3d 70 93 56 bd 59 2d fa 3c 74 3c 9a 3d
       0.07666341 -0.0523867 0.030539202 0.07531062
0000c0 21 87 c0 bd e1 a6 ac bd ba e6 e1 3d 60 67 da 3c
       -0.09400774 -0.08430267 0.11030336 0.026660621
0000d0 ed ae f4 3c 7b 0b 89 3c f5 91 a3 bd 73 93 ea 3d
       0.029868567 0.016729107 -0.079868235 0.11453905
0000e0 65 c5 a4 bd fd ec 0e 3e 34 ee fc bc 9b 6a 94 bc
       -0.080454625 0.13957591 -0.030875303 -0.01811724
0000f0 bd 3d d9 bd 24 6b 73 bd c2 93 8d bd 49 70 76 bd
       -0.10607479 -0.05942835 -0.06912948 -0.060165677
000100 ea 86 95 3c 6b 24 29 bd 17 f7 6f bc 80 5a 9a 3d
       0.018252809 -0.041294497 -0.014646313 0.07536793
000110 26 d3 94 bd 0a 3d 08 3c f8 51 34 3d cf f5 de 3d
       -0.07266836 0.008315334 0.044023484 0.10886728
000120 47 02 55 bd e5 3c 02 3c 0b a2 ad bd b8 98 21 3c
       -0.052004125 0.007949089 -0.08478173 0.009863071
000130 4a f5 1a 3e 35 17 b6 3d f2 f7 b1 bd 2b 07 8d 3d
       0.15132633 0.08891145 -0.0868987 0.06886133
000140 af 46 84 bd b0 e2 16 3d 28 e0 03 3d 68 eb f3 3e
       -0.06458794 0.03683728 0.032196194 0.47640538
000150 6a 74 21 bb 13 fc 62 3a 28 9e c1 3d a9 13 d9 bb
       -0.0024636039 0.0008658778 0.09453994 -0.006624658
000160 13 d4 af 3d c9 b5 9c 3d b6 f9 cd 3c 01 22 11 bd
       0.08585372 0.0765186 0.025143486 -0.03543282
000170 f9 50 c2 bd ef 75 bd bc e6 61 d7 3e 0e 25 f4 bd
       -0.094881006 -0.023127524 0.42066878 -0.1192113
000180 5b 28 ed bc 19 23 22 bd 1b 5b e9 3d dd da 0a bc
       -0.028949907 -0.039584253 0.1139433 -0.008475033
000190 89 d9 56 3d be 59 dc bc bc d9 db 3b 1c b2 f4 bc
       0.05245355 -0.026898261 0.0067093056 -0.029870085
0001a0 7c 01 aa 3d cf be 18 3c 97 4a 2c bd c1 16 90 3d
       0.08301064 0.009322836 -0.042063322 0.0703559
0001b0 68 a4 b2 3d 6b 3a a5 bd 05 69 8c 3c ac 31 39 3d
       0.08722764 -0.08067783 0.017139921 0.045213386
0001c0 4f ac e3 3c b4 61 42 3d 2a dd f1 3e 81 f5 50 3d
       0.027792124 0.04745646 0.47239047 0.05101538
0001d0 e8 c8 20 bd c0 c5 cd 3d 3f b1 09 3f 64 64 4b bc
       -0.0392541 0.100474834 0.5378608 -0.012414072
0001e0 e2 f0 d1 bd 4f 2b a6 bc 87 7b 04 3d 24 15 6c bd
       -0.10251023 -0.020284323 0.032344367 -0.05763735
0001f0 64 f9 5e bd a5 f2 4c 3d a7 c7 bd bd 70 01 8d bc
       -0.054437056 0.05003609 -0.09266596 -0.0172126

fc.4.weight f4 [128, 128]
000000 a8 13 00 3e e0 f2 60 3c 3a 28 b3 3c 67 6a 7d 3d
       0.12507498 0.013729781 0.021869767 0.06186905
000010 9b 6f b3 3d ce e2 38 3d de 94 ec bd f1 a2 d8 bb
       0.087615214 0.045138173 -0.11551832 -0.006611221
000020 80 ca 40 3d 61 f0 cc 3d e8 5a cc bb 49 c7 e6 3c
       0.04706812 0.10006786 -0.006236423 0.028171198
000030 86 05 b0 3d 72 10 53 bc a6 1b 5c 3c be 85 1b bd
       0.085948035 -0.012882339 0.013434326 -0.037969343
000040 f7 c5 6c 3d b9 1f 87 3d 77 3f 29 ba 2f e6 ec 3d
       0.05780598 0.065978475 -0.00064562954 0.115673415
000050 34 6e de 3d 49 f3 00 3e d1 68 74 3d 2f a3 c9 3d
       0.10860863 0.12592806 0.059670273 0.09845578
000060 0b 24 85 3c 4c 85 25 bd 06 aa 93 3d 7e bb ed 3d
       0.016252538 -0.040410325 0.07210164 0.11608027
000070 6f 5f 1b 3b f1 64 75 bc e3 0c 94 3d 2b e6 d2 3c
       0.0023708006 -0.01497768 0.072290204 0.025744518
000080 18 9c ef 3d ea 17 75 bd 6c 35 22 bd 5a ca 86 bd
       0.116996944 -0.05983726 -0.03960173 -0.06581564
000090 a6 9e 2f bd 7f 56 c8 bc 3c f4 f6 38 1e f5 98 3d
       -0.04287591 -0.024455307 0.00011775686 0.074686274
0000a0 5a 96 6b 3d a1 01 42 bd 19 b6 61 3c 30 7b 26 bd
       0.057516433 -0.047364835 0.013776326 -0.040644825
0000b0 53 b3 f9 3d 3f ff 0e 3c 8d 28 de 3b 4d 66 e7 3d
       0.121924065 0.008727848 0.0067797364 0.11298809
0000c0 0e 8b 8a bc a4 d8 70 3d 2b 1c fa 3d 9a 0e e3 3b
       -0.01691201 0.058800355 0.12212404 0.006929231
0000d0 dc 80 41 bd 30 09 57 3d 06 6c 6d bc 9b c6 95 3c
       -0.04724203 0.052498996 -0.014491087 0.018283179
0000e0 5e 78 a9 3d 58 6b 0c bd 6c 0d 8f bc 5a db c6 3c
       0.08274911 -0.03428206 -0.017462455 0.024274517
0000f0 8e b2 8f 3d 4c b5 c5 3d ac a9 51 3c ac 50 ea bb
       0.070164785 0.0965372 0.012796801 -0.00715073
000100 f2 dd a3 bc 3c b3 a4 3d 6b fe 62 3d 58 ea f8 3c
       -0.020003293 0.08041999 0.055418413 0.030385181
000110 be 60 91 3d 1f 3e e7 bc 33 1f ea 3c 02 59 ca 3c
       0.0709853 -0.028227864 0.02857933 0.024700645
000120 1b 8d 51 bd 89 96 92 3d 21 28 88 bd 03 15 bd 3d
       -0.05115996 0.071576186 -0.06648279 0.09232523
000130 bd db a7 3d ec de 0a bd 16 4b 11 3c d4 c5 8e 3d
       0.081962086 -0.033904 0.008868 0.069713265
000140 ef a1 06 3d ce ee 22 3d 8b 09 c5 3d ae 49 ae bc
       0.032869276 0.039778523 0.09620961 -0.021275368
000150 4e 6f 36 3c f6 91 c9 3d 0d cd 7e 3d bd 31 7f 3c
       0.011134936 0.09842293 0.06220727 0.015575823
000160 77 49 fa 3d f5 99 9b 3a cb 77 77 3c de 72 2b 3d
       0.122210436 0.0011871444 0.015104244 0.041857593
000170 df a8 18 bd 5c f6 c2 3c 0f 75 69 be c4 0f 68 3d
       -0.037270423 0.023799114 -0.2279856 0.05665566
000180 94 d6 de 3c 34 10 de bc 24 1a 3a bd 98 85 6e 3d
       0.027201928 -0.027107336 -0.045435086 0.058232874
000190 74 b1 70 3d 5a cc ab bc 30 d9 17 bd aa 8b f7 3c
       0.058762982 -0.020971466 -0.03707236 0.030217964
0001a0 52 e3 43 3b c7 80 f6 3b fe 24 02 bc f0 10 93 bc
       0.0029890132 0.0075226757 -0.00794339 -0.017952412
0001b0 b9 55 50 3d 89 36 1a bd 70 61 00 bd d4 36 c0 3d
       0.050863 -0.037649665 -0.031342924 0.09385458
0001c0 4a b5 e2 3d e1 ff 51 3d 64 65 4c be 04 24 40 bd
       0.110697344 0.051269416 -0.19960552 -0.046909347
0001d0 6e a6 e5 3d cf 50 93 3d a9 f3 5c be fb 02 9d 3d
       0.112133846 0.071931474 -0.21577324 0.07666584
0001e0 4b eb 26 bd 5a d0 53 3d af 25 ac 3d 04 2f 75 3d
       -0.040751737 0.05171237 0.08405625 0.05985929
0001f0 e7 d5 8c bb d1 ba e7 3d 49 69 c3 3d 73 04 75 3d
       -0.00429796 0.11314929 0.09541566 0.059818696
000200 6b 64 88 3c e2 f2 93 3d bf d5 9c 3d 80 8f 58 bd
       0.016649446 0.072240606 0.07657956 -0.052871227
000210 fb 87 1b 3d 36 5a 14 3d 16 38 a0 bd 5d 8b d4 3d
       0.037971478 0.036218844 -0.078231975 0.10378144
000220 fb 62 e2 3d 0f a4 c8 3d 30 9b af 3c 43 f5 27 bc
       0.11054035 0.09796917 0.021436304 -0.010251346
000230 d8 36 07 bc 8a a3 03 3e b5 be f5 3d 11 08 ad 3c
       -0.008252822 0.12855354 0.11999265 0.02112201
000240 d3 22 82 3c e9 1a 0b 3d e5 10 27 bd db f7 1d bd
       0.015885746 0.03396121 -0.040787596 -0.03856645
000250 f8 8b 61 3d 11 44 0f bd 26 48 40 3d af b6 db 3d
       0.055065125 -0.034977023 0.046943806 0.107282035
000260 f0 78 62 3d 20 ad da 3d 4a bb ef bc 43 f3 9c 3c
       0.055291116 0.10677552 -0.029264111 0.019158965
000270 b9 4e 3c ba e5 3c 22 bd aa 01 fe 3d 76 6b e8 3d
       -0.00071833614 -0.039608855 0.12402661 0.113486215
000280 e0 69 af 3d a1 f3 e5 3d 54 0a 22 3d 65 3d 89 bd
       0.08565116 0.11228109 0.03956063 -0.06701163
000290 ca d5 1a bd 15 7b c6 bc bd e7 4a 3d cf af 00 bd
       -0.03780154 -0.024228612 0.04953741 -0.031417664
0002a0 80 9b 59 bc 06 8a 05 3d 36 c5 d4 3d ca b7 02 3e
       -0.013281703 0.032602333 0.103891775 0.12765422
0002b0 bc 52 15 bd f9 68 14 3d 61 3b 97 3d bc 04 f5 bc
       -0.036455855 0.036232922 0.073843725 -0.029909484
0002c0 d1 56 50 3d 95 97 84 bd c3 83 34 3d d5 d8 b2 3d
       0.050864045 -0.064742245 0.04407097 0.08732764
0002d0 b3 66 9c 3d 5a 3b dc bb af 7c 48 3d 96 ff f1 3b
       0.07636776 -0.0067209424 0.048947033 0.0073852045
0002e0 f3 09 d0 3b 75 08 96 3d cc 1d 39 3d 47 4a 06 bd
       0.0063488423 0.07325832 0.045194432 -0.03278568
0002f0 c1 d5 ff 3d 03 c4 c3 bc c3 4d 48 3d 10 17 d7 3d
       0.12491942 -0.023897177 0.048902284 0.10502446
000300 77 74 00 3d 15 49 1f 3d 83 14 97 3d 1d 3a 58 bd
       0.03136107 0.038888056 0.07376959 -0.052789796
000310 c1 52 63 3d 67 86 d6 3c 19 65 50 3d bb df d6 3d
       0.055498842 0.026187135 0.050877664 0.10491892
000320 dd 42 44 3d 07 f1 71 3c 03 8b 87 bd 1e dd e7 bc
       0.04791533 0.014766938 -0.06618311 -0.02830368
000330 ce 9e ab 3c 9f e0 be 3d 31 46 32 bc 7e e9 f6 bc
       0.020949747 0.09320187 -0.010880993 -0.030140635
000340 92 28 86 3d 98 fc 95 3d ea 65 36 3d 64 42 6a 3c
       0.06550707 0.07323569 0.044530787 0.014298055
000350 bd 41 c8 3d 59 93 c8 3d b4 e9 b3 bd db 6c 91 bc
       0.097781636 0.09793729 -0.0878481 -0.017752102
000360 21 87 42 3c 06 44 49 bc 85 61 a2 3d 08 93 1d bc
       0.011873038 -0.012284284 0.079287566 -0.0096175745
000370 78 9e 27 bd 36 13 83 3b ed d9 74 be 0e 3c 39 3d
       -0.040922612 0.004000093 -0.23911257 0.04522329
000380 7f 29 32 3d ec d3 4c 3d 8d e3 86 3d 8d 32 eb 3d
       0.043496605 0.050006792 0.065863706 0.11484251
000390 32 32 29 3d 59 fb ca 3d 1e 2f 08 3a ee 1e 35 bd
       0.041307636 0.09911222 0.0005195009 -0.04421895
0003a0 f1 f6 e5 3d 98 e5 70 3d fd 7f 97 3d fa e8 58 bc
       0.11228741 0.058812708 0.07397459 -0.01323914
0003b0 f1 6b 99 3d 35 d2 88 3d ae 3f 9e 3d 5f b1 28 bd
       0.07491291 0.06680719 0.0772699 -0.04118478
0003c0 84 fd f7 bc bc de c3 bb a1 9a fc bd e2 74 f7 3d
       -0.030272253 -0.0059774797 -0.123341806 0.120828405
0003d0 24 10 94 3d f6 4f 10 3d cf 5b 35 be 13 41 c6 3d
       0.07229641 0.035232507 -0.17710803 0.09680381
0003e0 cd 38 92 3d b8 56 78 bc 38 3f e9 3c 23 8c a2 3c
       0.0713974 -0.015157394 0.028472528 0.019842213
0003f0 72 03 62 bd 7c 11 c5 3d 03 16 3a bd 7f 4e 86 3d
       -0.055179067 0.096224755 -0.04543115 0.06557941

fc.4.bias f4 [128]
000000 a7 a9 dc 3d c1 71 d6 3b ac 4e 6b be a6 35 23 3f
       0.10774546 0.0065443222 -0.2297923 0.63753736
000010 3f 0d 7c bd 12 ef 91 3d a1 f3 91 bd 35 2d da 3c
       -0.06153607 0.07125677 -0.07126547 0.026632885
000020 44 9a 7f 3c fe ec 34 be 4c 86 0a 3d 99 c0 aa 3e
       0.015600745 -0.1766853 0.03381948 0.33350065
000030 e1 94 a1 3c ec 8e d1 3c 66 c9 a9 3d 9e d7 70 bd
       0.019724311 0.025580846 0.08290367 -0.05879938
000040 aa ea b9 3d ec 54 80 3d 9a 50 f9 bc dd c3 61 3b
       0.09077962 0.062661976 -0.030433942 0.003444902
000050 1c bf 38 bd b5 5b 95 bd 38 8c 12 3d 51 bb 66 bb
       -0.04510413 -0.07292882 0.035778254 -0.0035206864
000060 14 26 8e bd ee e4 63 3d ae 20 09 bd ac e1 fc 3e
       -0.069408566 0.055638246 -0.03347843 0.49390924
000070 f5 1f 80 bd bd f6 d3 3d 75 2f 12 3d 96 d2 50 3c
       -0.06256095 0.10349796 0.03568979 0.01274552
000080 2c cc 5e be 92 37 83 3d df aa 29 bd 0f 97 2f 3d
       -0.21757573 0.064070836 -0.04142272 0.04286867
000090 c0 b2 7e bc 1b 59 ab bd ea 7e 27 bd df 02 93 bd
       -0.015545547 -0.08366605 -0.04089252 -0.07178282
0000a0 06 20 51 3d c0 a4 e3 3d 84 77 f5 bb 01 2a 79 3d
       0.05105593 0.11115408 -0.007491054 0.060831074
0000b0 ff 8e 93 bc 40 1a b1 3d 4a 90 d0 3a 1a 98 0d bd
       -0.018012522 0.08647585 0.0015912142 -0.034568883
0000c0 d7 ea fe 3d 0b 11 12 bc a8 38 47 3d de 44 47 3c
       0.12447136 -0.008915196 0.048638016 0.012162415
0000d0 15 94 15 3c f4 b2 43 3d 34 c4 4b bd 74 13 bf 3d
       0.009129544 0.047778085 -0.04974766 0.09329882
0000e0 83 e0 9f bd 08 a0 13 bc 3b 59 89 bd 14 85 b6 3d
       -0.07806494 -0.009010322 -0.067064725 0.089121014
0000f0 67 c1 18 bd 7e dd 42 3d 03 11 55 bd d2 99 dd 3d
       -0.037293818 0.047574513 -0.052018177 0.108203545
000100 7f 2f 9d 3e 0e e6 9e 3c 37 65 90 3c 6c 5f b7 ba
       0.307003 0.019396808 0.017626388 -0.001399023
000110 ab 7d 8f bd 68 5a 1f 3f fa 7f 1d be da 3d b8 bb
       -0.07006391 0.62247324 -0.1538085 -0.0056226077
000120 9d 6d 87 3d 6e b1 bd 3d 59 76 9b 3d 1f 20 4e bc
       0.06612704 0.09262358 0.075909324 -0.0125809
000130 d4 9d c4 3d 85 21 a8 bc 88 6f 34 3d e2 57 d0 3d
       0.09600416 -0.020523796 0.044051677 0.10173012
000140 4d ab ec 3d 8e 4f 71 bd a8 dd 02 3d d6 75 69 3d
       0.115561105 -0.05891376 0.03194967 0.056997143
000150 22 19 04 bd 21 ed 28 3f 72 15 54 bd 2a e8 c2 3d
       -0.03225053 0.6598683 -0.051778264 0.09516938
000160 4b 81 21 3d 4a de 68 3d 4f 1e d8 bc 02 d0 ff 3b
       0.039429944 0.056852616 -0.02638164 0.007806779
000170 2d 21 7b 3e 75 eb d0 3d 44 20 86 bc fd a4 af 3d
       0.24524374 0.1020116 -0.016372807 0.08576391
000180 da fb 83 3d e7 e3 85 bd 38 90 c4 bb 41 de 02 be
       0.06444521 -0.065376095 -0.0059986375 -0.12780096
000190 e9 17 c4 bc 3f fa d3 3d 89 a4 4c 3e bc 7e af 3e
       -0.023937183 0.10350465 0.1998464 0.34276378
0001a0 39 a1 7b 3c c5 3c d5 3e f8 e2 5f bd b2 d1 b2 bd
       0.015358263 0.41647926 -0.054659814 -0.087314025
0001b0 97 76 82 3d f5 a2 02 3f 18 4c 3a 3d 4b a5 e7 3d
       0.063702755 0.510299 0.045482725 0.11310824
0001c0 b2 09 5b 3b 7e d2 1c bc e8 1e c6 bc 20 e4 dc 3c
       0.0033422527 -0.00957167 -0.02418466 0.026964247
0001d0 8c 89 4a 3d 07 0b 05 be 7b 80 54 3f ce a0 c8 3d
       0.04944758 -0.12992488 0.83008546 0.09796296
0001e0 50 9c aa 3d bf 86 47 bc 64 d3 23 3b 1e 78 a4 bc
       0.083305955 -0.012178122 0.0024997825 -0.020076808
0001f0 bc a8 96 3d f1 16 b5 3d 24 26 47 3c 30 ee a7 bd
       0.07356402 0.08842266 0.0121550895 -0.081997275

fc.6.weight f4 [1, 128]
000000 05 6f 53 bd b9 32 00 be f2 85 51 bc bf 8e a4 3e
       -0.05161955 -0.12519349 -0.012788283 0.32140157
000010 ce b8 2d 3d a6 62 c0 bd 6a de 93 bb c1 b0 04 be
       0.04241257 -0.09393816 -0.004512598 -0.12958051
000020 3f 6c 01 be 18 ba d4 bb 66 ea 56 bd 35 1b 88 3e
       -0.12638949 -0.0064919107 -0.052469634 0.26583257
000030 46 2c cc bd 27 52 04 3c 7b a6 f9 bd 31 6b 35 3d
       -0.09969382 0.008076227 -0.12189957 0.04429168
000040 1d cc f8 bd a3 f3 84 bd 84 0e 2c 3d 1f 73 80 bd
       -0.121483065 -0.064917825 0.04200603 -0.062719576
000050 98 a0 10 3d fe 7f 46 3c 87 48 eb bd 87 09 6d bd
       0.035309404 0.012115477 -0.11488443 -0.057870414
000060 64 a8 7f bc 8c 74 bc bd 2f bd c4 3d aa 23 3b 3e
       -0.015604112 -0.09201917 0.096063964 0.18275324
000070 b3 ce 85 bc ce d4 b0 bd 04 9a fd bd c2 3d 2c 3c
       -0.016333913 -0.08634339 -0.12382892 0.010512771
000080 73 f6 80 bd bb 5f 59 bd f1 9d ce bd 12 28 63 3d
       -0.062970065 -0.05306981 -0.10088719 0.055458136
000090 1f 7e 05 be 46 1f 6c 3c f3 17 96 3d 90 4c 00 bd
       -0.13036393 0.014411753 0.07328787 -0.031323016
0000a0 15 ed c0 3c f5 ba c3 bd 28 8b 5b 3d 5f 2b b4 bd
       0.02355055 -0.095571436 0.053599507 -0.08797335
0000b0 91 5d 0c bd 93 cc ce bd ab 9f ec bd 07 ff a6 bd
       -0.03426892 -0.10097613 -0.11553892 -0.08154111
0000c0 54 3f 48 bd ff 87 fe 3c a3 1e ea bd d1 0e 43 bd
       -0.04888852 0.031070707 -0.11431625 -0.047621552
0000d0 24 b8 1c 3d 57 c6 cd bd 58 66 30 3d bc 0e 38 bd
       0.038261548 -0.10047596 0.043066353 -0.044935927
0000e0 30 fa c4 bb 4d 83 48 3d a7 d8 1d bc 6e 26 f9 bd
       -0.00601127 0.048953343 -0.0096341735 -0.12165533
0000f0 4c 53 b2 3c 26 5b 02 3c 96 4a 1c bc 2e 21 b0 bd
       0.021768235 0.007956302 -0.009539267 -0.086000785
000100 3b bc 5b 3e 86 49 53 bd c0 0a 92 3c 92 db a6 3c
       0.21458523 -0.05158379 0.017827392 0.020368371
000110 9e 6e 42 bd 63 30 9c 3e 78 b6 9d 3b 81 a8 8d 3b
       -0.047468774 0.30505666 0.0048130117 0.0043230657
000120 cb 6a 02 3e cb 09 d0 bd 8d 66 f6 bd 7f bd 79 bd
       0.12736051 -0.10158118 -0.12031279 -0.060971733
000130 2b 20 ea bd 98 2c fa bd 14 9a 89 3a c1 e2 fb bd
       -0.11431917 -0.12215537 0.0010498189 -0.12299109
000140 48 d3 d3 bd 8f 46 8d 3c b6 22 b5 bd e8 0b 53 3d
       -0.10343033 0.017245559 -0.08844511 0.051525027
000150 5d e5 84 bd cf f2 00 3f 12 b8 fb bd 64 a0 b6 bd
       -0.0648906 0.50370497 -0.12290968 -0.08917311
000160 66 86 d2 bd d8 13 9b bd 7a b3 f8 3a 0b 1d 59 bd
       -0.10279541 -0.07572144 0.0018974387 -0.053006213
000170 1d e1 a2 3e 17 a1 39 bd 2b 5c d7 bd 9e f7 da bd
       0.31812373 -0.045319643 -0.105156265 -0.106917605
000180 17 b8 64 bc 99 ef ac 3c b7 14 51 bd f1 57 f9 bd
       -0.013959906 0.021110343 -0.051045146 -0.121749766
000190 fb b3 21 bd 3d db 85 bd 7d 54 63 3e ac 3d 81 3e
       -0.039478283 -0.06535957 0.22200198 0.25242364
0001a0 14 e2 05 bb 8a 37 2e 3e 14 2a 9b bd 10 88 e1 3c
       -0.0020428943 0.17013374 -0.07576385 0.0275307
0001b0 dd 96 37 bd 76 46 5c 3e c5 5b d8 3c 95 dd 4b bd
       -0.04482161 0.21511254 0.026410947 -0.049771864
0001c0 13 09 f1 bd 88 0d 6d 3c 5c 22 62 bd cd 56 d0 bd
       -0.11769309 0.014468558 -0.05520855 -0.10172806
0001d0 bd ea ba bd 9e 9d 93 3c f6 72 c9 3e 67 40 64 bd
       -0.09126804 0.018019494 0.3934552 -0.05572548
0001e0 c6 f6 d3 bd 84 18 00 be 41 89 6c bd f0 86 7d bd
       -0.10349803 -0.12509352 -0.057748083 -0.061896265
0001f0 27 34 fa bc d3 1d da bd d0 ea 4e 3a 7f 4b 26 bd
       -0.030542446 -0.1065022 0.0007893266 -0.040599342
