src/value.pth (torch, 138491 bytes, 7 tensors)

fc.0.weight f4 [128, 6]
00000000: 336f a93e b656 a23e 7615 36be af5e 963e
00000010: e723 513e 0871 38be 6d3a 8ebe 311b 81be
00000020: 733e 38bc 6d96 b6be d462 d0be 88f6 63bd
00000030: c065 b0be f0fb 3b3e 504d 06be d4ae 803e
00000040: e3d2 a6be 6c10 47bd 6eb9 48be faba 9a3d
00000050: 338c b23d e983 bf3e 975b 5d3e de81 16be
00000060: 60af b73e 0a42 6fbe 57a6 d2be 09d7 973e
00000070: e4aa 783e 9d06 c4bd 2eee 943c 6769 b7be
00000080: 8b98 dd3e 7373 8abc 6379 1b3e b0da 0abe
00000090: 6bb3 89be cf20 03bf cc3f 453e 08ff 7bbe
000000a0: 3362 6dbe 98bc e3be b878 57bc 753b 193e
000000b0: d9d0 65bd aafd 0bbe 68b6 d4bd 252a 14bf
000000c0: f864 acbe 84a4 34be 2f71 c73c 627e 783e
000000d0: 9ab5 60be 4e3f f53e a364 a13f 638e 673d
000000e0: 5d7e 243f 6d11 6bbd 98fd a43e 0c5b 053f
000000f0: 0fb7 e6bd 073c 033e 0685 403e 17bf 77be
00000100: 8628 603e 8a2a e2be 131d 093e e21a e93c
00000110: 9350 8b3e 8bc9 5bbe c2b1 1d3e c699 95be
00000120: 7f0c 3c3e 0a8c 103e d505 f7bd 86c4 913e
00000130: 08b2 413e 7d9b be3d 2d76 78bc 7c9f 8dbe
00000140: 11eb 18be 921a c9be 8317 72be 5efe debe
00000150: 4290 6e3d cf02 61bd 1bda bb3e a47c 41be
00000160: c75c d23e 4a19 503e ecd0 403e 4eb4 b0bd
00000170: 083a c7be 6679 b93c 4d95 1cbe f37a cdbe
00000180: 97d7 a73d aa56 0e3d 8540 6abe 2301 9b3e
00000190: 3cc2 843d 01ae 543e 1142 34be 589f cb3e
000001a0: 547e 46be ec51 99be 0c92 b33e 41e4 a8be
000001b0: 9981 863d 6107 b2bc d840 e5be 0377 7ebe
000001c0: b464 8d3e 6f9f 81bd 3765 0e3e 52f7 b5be
000001d0: a3cf 763e 2861 4b3e b0fe c53d 2499 a13c
000001e0: b17c c6be d1eb 8d3d 3ec1 81be a097 623e
000001f0: 7cc3 57be 0f14 35bd a8eb 97bd 488c 293e
00000200: eb18 61be fd95 abbd 92a9 5ebe be6a 39be
00000210: d191 01ba 74c3 993e 6552 75be dc93 ac3e
00000220: 716a aa3e 5209 e63b 0236 37be 1620 c03e
00000230: 478a 193e 10fc 323e fbf3 f5bc f778 7b3b
00000240: a35d a0be 3548 993e 8f9c 67be 7b5e c8be
00000250: 050f c53e 1211 21bd b32f a23e 4b89 973e
00000260: 5cb1 16be b8a4 9f3e a924 15be 8d3e 913d
00000270: d60e 1e3e 5e93 74be 420e 393e e691 90be
00000280: a9bf 81be 9a22 c2be c026 a2be 78d1 d7bd
00000290: 311f 9e3e 3b59 aa3e 9143 263e 691a a0be
000002a0: 607d cbbe a68c 453e cc2a 3ebd 39fd 71be
000002b0: 602a 39be 3c50 2a3e de19 ba3d d0ca 34c0
000002c0: e4f6 50be a01c 823d 16c6 49c0 49a8 1f3d
000002d0: 7b98 09be 8307 f33e fb19 9d3e 364a b7be
000002e0: 45f8 30be 0921 713e c849 373d ed27 97be
000002f0: 196a f0bc a9fc 12bf 2449 72bd b6e6 eabd
00000300: 7fda 6ebb 6e74 adbe 8898 e5be 4a03 3bbe
00000310: 746a b73e 0cd6 21bd a54a 453f 17ad 853e
00000320: 1984 ef3e b666 063f 5ed5 02bd 69dd fd3d
00000330: 64bf f6bc af27 d2be eddf 873e 2255 1dbd
00000340: 980c 6c3e 9411 2dbe 9799 ae3e eab5 c93e
00000350: 5686 c4be bd81 adbe 1613 9a3e b2f0 69be
00000360: 849c 91be 1fcc 9b3e 8f69 debe e50e 2dbe
00000370: 941c d5be efe5 833e a916 57be 0086 303e
00000380: be50 3abe 8c1c f83d 76ed 95bb 9557 17bd
00000390: 8cbd ecbe 9319 92be 8d1e dabc af5e 21be
000003a0: 0706 033d f7fa 9d3e 8945 31be 7da5 4ebe
000003b0: 2d70 88be 1a9b 9abe 504d 8dbd e091 13be
000003c0: 156a 8dbe 19c0 7cbe 744a 6abc 888a 51bd
000003d0: 2bdb b2be ff75 08be 5436 b33e 1a48 a53e
000003e0: 8868 cfbe 06aa 20be 7213 c6be 4b46 b0be
000003f0: 445e e23d a990 ee3d e123 c2be 7af4 84be
0.3309265 0.3170678 -0.17781624 0.29369113 0.20423852 -0.18011868 -0.2777895 -0.25216058
-0.011245358 -0.3566164 -0.407004 -0.055655032 -0.3445263 0.18357825 -0.1311543 0.25133383
-0.3258277 -0.048599645 -0.19601986 0.07555194 0.08718147 0.37405327 0.2161697 -0.14697978
0.35875988 -0.23365036 -0.41142532 0.29656246 0.2428394 -0.09571574 0.01817998 -0.35822603
0.43280444 -0.016900754 0.15183024 -0.13559985 -0.26894698 -0.51221937 0.19262618 -0.24609005
-0.23181991 -0.44479823 -0.01315134 0.14964087 -0.056107376 -0.13670984 -0.10386354 -0.5787681
-0.33670783 -0.17640883 0.024345962 0.24266961 -0.21944275 0.4789986 1.2608837 0.056532275
0.64255315 -0.057389665 0.32224727 0.5209205 -0.112653844 0.12815867 0.18800744 -0.24193989
0.21890458 -0.4417308 0.13389997 0.028455202 0.2720991 -0.21463601 0.1539984 -0.29218882
0.18364142 0.1411592 -0.12061659 0.28470248 0.1891557 0.09307001 -0.015164894 -0.2766074
-0.1493342 -0.39278084 -0.23641782 -0.43553442 0.058243044 -0.05493432 0.3668984 -0.18895203
0.41086408 0.20322147 0.18829697 -0.086281404 -0.38911462 0.022640895 -0.15291329 -0.40132865
0.081954174 0.034750618 -0.22876175 0.30274305 0.0648236 0.20769502 -0.17603327 0.39770007
-0.19384128 -0.29945314 0.35072362 -0.32986644 0.065676875 -0.021732034 -0.44776034 -0.24850087
0.27615893 -0.06329238 0.13905798 -0.35540253 0.24102645 0.19861281 0.096677184 0.019726343
-0.38767007 0.06929744 -0.25342745 0.22128153 -0.21070665 -0.044208582 -0.07417995 0.1655742
-0.21982162 -0.08378217 -0.21744373 -0.18107125 -0.0004942688 0.3003193 -0.23957212 0.33706558
0.33284333 0.007020154 -0.17891696 0.3752448 0.14994155 0.17478967 -0.030023566 0.0038371661
-0.3132144 0.29937902 -0.22618316 -0.39134583 0.38488021 -0.03932292 0.31677017 0.29596934
-0.14716095 0.31180358 -0.14564766 0.07092009 0.15435347 -0.23884341 0.18071845 -0.28236312
-0.25341538 -0.37917024 -0.3167019 -0.10538 0.30883172 0.33271202 0.16236712 -0.3127015
-0.3974409 0.19291934 -0.046427533 -0.23631753 -0.18082571 0.1663217 0.09086965 -2.8248787
-0.20406681 0.06353116 -3.1527152 0.03897885 -0.13437073 0.47466668 0.30683884 -0.35798806
-0.17282207 0.23547758 0.044748098 -0.29522648 -0.029347466 -0.5741678 -0.059151784 -0.11469786
-0.0036446152 -0.3387789 -0.44842935 -0.18262973 0.35823405 -0.03951077 0.77067024 0.2610862
0.4678047 0.52500474 -0.031941764 0.12395746 -0.030120559 -0.410459 0.2653803 -0.038411267
0.23051679 -0.16901237 0.34101555 0.39396602 -0.3838374 -0.33888045 0.30092686 -0.22845724
-0.28439724 0.3042917 -0.4343991 -0.16900213 -0.41623366 0.25761363 -0.21004738 0.17238617
-0.18194863 0.1211482 -0.0045754267 -0.03694876 -0.46238363 -0.28535137 -0.026625896 -0.15758775
0.03198817 0.30855533 -0.17311682 -0.20180316 -0.26648083 -0.30196458 -0.06899512 -0.14411116
-0.27619997 -0.24682654 -0.014299978 -0.051157504 -0.34932837 -0.13326262 0.35002387 0.32281572
-0.4050944 -0.15689859 -0.3868671 -0.3442863 0.11053136 0.116486855 -0.37917998 -0.2596777

fc.0.bias f4 [128]
00000000: 5cc1 9fbe a6ea e6bd fcaa 3abc 47db 0f3d
00000010: 1d7a fa3d 6d33 9bbd 3fde a8be b172 babe
00000020: 800e 3b3f 047e 13bf 82f4 d9bd 66c7 363e
00000030: 6542 bf3e 634b 7fbe 861d 1cbe d518 a13e
00000040: 56e6 a43e dac1 4f3e 41d0 f23e 1edb d43d
00000050: 7685 dabd 9e3a a03e df6e 93be b930 2e3e
00000060: 02a8 b73e 32ef dabe 7f66 bc3d 7ef7 213e
00000070: 1ba1 6b3e 9587 4d3f fc1c 973e 8e61 6dbd
00000080: 8a10 603e 8d01 08bf 20b4 aebd 3a24 823d
00000090: a9f1 023e 9e28 99be a73d 093f 5b06 cd3d
000000a0: 821a 4cbe 1227 09bc 6251 153e 8b7e 873e
000000b0: 311a 733d cc63 493e 86fe 3c3e 1780 123e
000000c0: 8d09 a13d 3648 d63e 27aa bd3d 6f2d a0be
000000d0: a5ac 2f3e a42d f3bd 7ca4 303f 8745 76be
000000e0: 249f fabe 3f88 983e 7f8c 79bc a392 99be
000000f0: c726 453e 558a 51be 48a1 493e 5039 403e
00000100: 3b82 a13e f64c a2be 5438 1f3d 3235 443d
00000110: 14e8 4abe e3b2 c93b 55f9 fa3d b027 8dbe
00000120: 22eb 21bb 81c9 0f3e 7777 a3be 9cb7 dfbe
00000130: 875e 263f 53ce 703e e7ae 0cbe cd30 483f
00000140: 1eda e53e 601e b33e 2d9b 993e b619 e43e
00000150: 0f9c 28be 2d4d 2a3f aa4e 0b3e e484 93bd
00000160: 3f8b b53e 1a8f 8bbe 63b9 f2bc 4686 4abd
00000170: 9a13 103e 4051 f53e 7693 8f3e ca24 2abe
00000180: 596f 413e 0b22 04be 5dc3 463f dbea b53e
00000190: e013 0b3f 8aa5 ad3e 912c 0bbf 773c 0cbe
000001a0: 03c8 afbc cd4c a43e 820c 243e 6470 203e
000001b0: fcfc 06bd de92 103f aa56 3a3f 489c 44be
000001c0: cafe e2bd f889 c83e c01e 7c3e da95 023e
000001d0: 32ab 993e 7f3e e1bd 23ca 0dbf aea2 debd
000001e0: b3e8 bbbe 7d12 8bbd 93fd 71be 82fe 77be
000001f0: c086 ba3d 4b14 413c e177 233e 90a5 a53e
-0.3120221 -0.112752244 -0.011393305 0.03512123 0.122303225 -0.07578168 -0.3298206 -0.36415628
0.73069 -0.5761416 -0.10642339 0.17849502 0.37355343 -0.24931102 -0.15245637 0.31464258
0.32206982 0.20288792 0.4742451 0.10393356 -0.10669987 0.3129472 -0.28795525 0.17010774
0.35870367 -0.42760617 0.09199237 0.15817067 0.23010676 0.80285007 0.295143 -0.057954364
0.21881309 -0.53127366 -0.0853045 0.06354566 0.12787499 -0.299138 0.536097 0.10010978
-0.19931987 -0.0083711315 0.14581826 0.26463732 0.05935115 0.19666976 0.18456468 0.14306675
0.0786315 0.41851968 0.092609696 -0.31284663 0.17155702 -0.1187394 0.69000983 -0.2404996
-0.4894954 0.29791448 -0.015231251 -0.29994687 0.19253074 -0.20462926 0.1969043 0.18771863
0.3154467 -0.31699342 0.038872078 0.047902294 -0.19815093 0.006155358 0.122545876 -0.27569342
-0.00247068 0.14041711 -0.31927082 -0.4369477 0.6498799 0.23516206 -0.13738595 0.78199464
0.44892973 0.34984112 0.30001202 0.44550866 -0.16465782 0.6652401 0.13604227 -0.07203081
0.354578 -0.27257615 -0.029629415 -0.04944446 0.14069977 0.4791355 0.2804219 -0.16615596
0.18890132 -0.12903611 0.7764185 0.35530743 0.543272 0.3391536 -0.5436488 -0.1369494
-0.021457678 0.32089844 0.16020396 0.15667874 -0.03295611 0.564741 0.7278849 -0.19200242
-0.110837534 0.39167762 0.24621105 0.12752476 0.30013424 -0.10998248 -0.5538656 -0.108708724
-0.36700973 -0.06790636 -0.23631887 -0.24218181 0.09107733 0.011784623 0.15963699 0.32352877

fc.2.weight f4 [128, 128]
00000000: 85ea 2e3c ae51 263e 1c3f a03d 8142 e6bc
00000010: 5674 5abd dcc1 a53d a643 3a3e 2869 883e
00000020: 4ab3 23bf 3e6a 22bb 8aeb ac3d c199 1bbd
00000030: 4794 773c 84f6 1a3e f6d5 e7bd a07a 1c3e
00000040: f9e4 bebd bcad bd3d 7e48 bb3c 183d 73bd
00000050: 7dcf 353d 3a66 053e d886 a03d 1fca e43c
00000060: 70fd 87bd 8d99 0abd d46d cc3c 83b6 f33b
00000070: 3e73 6cbd 2eb9 1ebf 9414 52be eca7 413e
00000080: 2efd cd3d a7db 94bd 281b 673d 8932 773d
00000090: 2fd5 e23d 5f14 d13a 87d1 00bf cc73 6f3d
000000a0: 75d5 1c3e 20b1 873e 91a7 d9bc cdb5 2a3e
000000b0: f804 623d 81cc 22be 3521 193c 5a7b bb3d
000000c0: 935e 97bd be9e 8ebc 3ff0 a1be 2c58 4a3e
000000d0: 13aa b83d f8aa 243e fab0 64be 2fcf c43d
000000e0: dac4 b63e 6a0c 55bd d241 123e 5fd8 c93d
000000f0: 03c0 363d 7d3e 113c 82d3 753d cfef 103e
00000100: 3155 6c3c 6e25 0fbb 5aab a6be c139 e0bd
00000110: 1b07 443e 0513 18bd e06d 6c3d 03be ef3d
00000120: 3ad4 ac3d 224c a33d 351d 263d 0170 84bc
00000130: 515f 95bd 2abb dabd 6667 55bc 6b3a 03bf
00000140: d231 96bd f71b c53d 62eb 033d f2b8 70bc
00000150: 8cc8 253e 3d55 f1bd 19dc 953d 0b88 fcbd
00000160: 7824 58bc 8de3 ec3d 95ff 3e3d 2e08 d7bd
00000170: d00d 88bc 97a5 4abd 6a3a 173d 48df 023e
00000180: 5ab9 35bd 3457 153b 3570 31bf ed5b 4dbc
00000190: bafc 9cbd fbdb cf3d 363e 96bd 0720 1c3e
000001a0: 791b 8f3e a0b1 b1bd 134a afbb 85e6 76bc
000001b0: dbee b03d 55a4 10bd 05ef c3be d334 613d
000001c0: 1891 b8bb 7665 2bbc cc1a 573d 1282 7a3d
000001d0: 13bf cebd 6e54 ffbc 68a7 6d3c f213 6cbf
000001e0: 824b dc3c c2eb 5b3c 1ff8 70bd 5b23 2c3e
000001f0: f8ad f43d 4b1c a43d 74ab 22bd 04d4 d73c
00000200: 3912 6f3c 3ac4 8a3d 9ec4 31bc 559d 4b3d
00000210: 1f0f 4c3d 28d6 0e3e dab2 4a3e b0d0 bf3d
00000220: 7bc8 23bf 8f50 12bb e00b 393a c301 e5bd
00000230: c652 f2bd 3af7 7a3e ab27 f7bd 06e6 1a3d
00000240: 4cc2 a7bd 1a23 8b3d a485 433c f5ff d4bd
00000250: c0a4 acbb 9f4c c83d 729a 863b cda6 1abd
00000260: 4cfd 03bd 508b 08bd 57ba a53d 94d9 613d
00000270: b588 50bd e8e8 3fbf bd57 e9be 239c c03d
00000280: 433e 3d3d e026 8d3b 7ced beba 9134 dc3c
00000290: 8134 98bc 3dce 17bd 8cb1 d4be f6b8 153e
000002a0: a8d9 123e 7451 463e f6cb 41bd fadf 943d
000002b0: 5562 bb3d 778f 7abd 3690 bfbc 368e 903d
000002c0: 1274 a03d 966d a4bd 831a 24bd f85c 2f3e
000002d0: 84aa 343d 8535 4e3b 76ee febd d348 c43a
000002e0: 4ff7 0a3f dabf b53d 3abf 423e 012d bbbc
000002f0: d27d b33d adee 933d 51c1 06bd 199c ab3d
00000300: 46e4 6f3c 5929 113c 3666 61be 13ff 2cbe
00000310: 42d1 163e e77e 2dbd ae18 f73d 176e c43d
00000320: 1487 0f3d 7682 dc3d 8cba 813d afee b23c
00000330: e34a 1fbe 6a69 29bd 5db7 01be 1583 0dbf
00000340: 3703 f5bd a6f0 22bc 0bd4 ad3d 3f0f ca3d
00000350: 90d1 073e 1f48 7ebd 26db 623d bb3a 773c
00000360: 1ab1 493c 7291 92bd 4d11 6e3d 9429 893c
00000370: 0a84 7dbc 4b95 0cbd 08b4 bd3c cb34 703d
00000380: a425 c73d 3d82 c33d ac38 efbe c2e0 56bd
00000390: 3c93 9d3d e951 353d aaa9 cdbb 99b3 973d
000003a0: 6d09 133e dac4 a3ba cc36 cd3d 2bed 7a3d
000003b0: 8062 963d a1e7 cfbd d058 8bbe 8d5f 0d3e
000003c0: 57e9 31bd 4843 34bc 8c8a 09bd 337b 693d
000003d0: b78d babd f90e f43d 9737 9a3d bf08 3ebf
000003e0: adc5 1e3e 23c7 ffbc 59f3 c2ba d286 493e
000003f0: 81e6 083d a865 4b3d 1e3d 67bd 622e cb3d
0.010676031 0.16242096 0.07824537 -0.028107883 -0.053333603 0.08093616 0.18189868 0.26642728
-0.6394545 -0.0024782564 0.08443363 -0.037988428 0.015111036 0.15133101 -0.11320107 0.15281153
-0.09321017 0.09261653 0.022861715 -0.059384435 0.04438733 0.13027278 0.078382194 0.02792841
-0.06640136 -0.033837844 0.024954714 0.0074375286 -0.05772709 -0.6200131 -0.20515662 0.18911713
0.10058056 -0.07268458 0.056422383 0.06035093 0.11075818 0.0015951506 -0.50319713 0.058460042
0.15315802 0.26502323 -0.02656916 0.16670914 0.05518052 -0.15898325 0.009346296 0.09154387
-0.073910855 -0.017409679 -0.31628606 0.19760197 0.09016814 0.16080844 -0.22333136 0.0960983
0.3569706 -0.052013792 0.14282921 0.09855723 0.04461671 0.008864996 0.060016163 0.1415398
0.014424608 -0.0021842378 -0.32552606 -0.10948516 0.19143336 -0.037127513 0.057721972 0.11706164
0.084389165 0.079735056 0.040555198 -0.016166689 -0.07293571 -0.1068023 -0.01302514 -0.51261014
-0.07333721 0.096244745 0.0322069 -0.014692532 0.16189784 -0.11783836 0.07317371 -0.12330636
-0.013192289 0.11566839 0.04663046 -0.10499607 -0.016608149 -0.049474325 0.036920942 0.12780488
-0.04436622 0.0022787573 -0.6931184 -0.012534124 -0.07665391 0.1014938 -0.073360845 0.15246592
0.27950647 -0.086764574 -0.0053494065 -0.015069609 0.08639308 -0.03531297 -0.38268295 0.054982018
-0.005632531 -0.010461202 0.05251579 0.0611592 -0.10095038 -0.031168189 0.014505245 -0.92217934
0.026891474 0.013422908 -0.058830377 0.16810362 0.119472444 0.08013209 -0.03971429 0.026346214
0.014591747 0.067757085 -0.0108501 0.04971059 0.049819108 0.13948882 0.19794789 0.09365976
-0.63977784 -0.0022325849 0.00070589595 -0.11181977 -0.11832194 0.24508372 -0.12068113 0.037817024
-0.08191356 0.067938045 0.011933718 -0.104003824 -0.005268663 0.09780239 0.004107767 -0.03775673
-0.032223985 -0.033335984 0.08092182 0.05513914 -0.050911624 -0.7496476 -0.45574751 0.09404781
0.046201956 0.004307613 -0.0014566625 0.026880534 -0.018579723 -0.03706192 -0.41541708 0.14621338
0.14340842 0.1936701 -0.047313653 0.07269283 0.09149615 -0.061171975 -0.023384195 0.070583746
0.07834639 -0.08028714 -0.040064346 0.17125309 0.04410793 0.0031465006 -0.124478266 0.0014975317
0.5428361 0.088744834 0.1901826 -0.022848608 0.08764233 0.07223258 -0.032899205 0.08379383
0.014641827 0.008859956 -0.22011647 -0.16894178 0.14728263 -0.04235735 0.12065254 0.095913105
0.03504093 0.10767071 0.06334409 0.021842329 -0.15555911 -0.041360296 -0.12667604 -0.5527814
-0.11963504 -0.00994507 0.084877096 0.09866189 0.13263535 -0.0620805 0.055384777 0.015089686
0.012310291 -0.07156648 0.058121968 0.016743459 -0.015473375 -0.034322064 0.023157135 0.058644097
0.09723976 0.09546325 -0.46722925 -0.05246044 0.07694098 0.04426757 -0.006276329 0.074073024
0.14359064 -0.001249458 0.10020217 0.061261337 0.07343006 -0.101516016 -0.27216196 0.13805981
-0.04343542 -0.011002369 -0.033579394 0.057002258 -0.09109061 0.11916918 0.07530134 -0.74232095
0.15505095 -0.031222885 -0.0014873549 0.19680336 0.03342295 0.049657494 -0.05645477 0.09920956

fc.2.bias f4 [128]
00000000: 87a9 8abc 9623 53bd 7613 9a3d 1310 843d
00000010: f09a 7c3c 4056 d3bc 0216 ec3e ecaf 60bd
00000020: ae83 22bd 88bb 5e3d 5fd2 ff3b 810f 92bc
00000030: c2df 5bbd 7fa0 903c 94a1 d33c 3082 cbbd
00000040: 1ec9 293d 49f6 0cbd fbec a23c 2fb2 783d
00000050: adde 843d 7258 d13c ba67 733d 2b59 0cbe
00000060: 78b4 c4bc 4a6d 13bd 267a 963d 46e7 ac3d
00000070: 86ba 743d eea5 42bd e143 42bc 0d1b ba3d
00000080: 8008 883d 6692 853e 07ed 0b3d b7ce 8cbd
00000090: 2506 053e f118 bcbd be86 b73d 0f8f d13d
000000a0: 790d 81bd 44c6 3bbc ebf2 463d 6bb6 f23c
000000b0: f93d 793d 7093 56bd 3bec f13c 0410 c73d
000000c0: 2187 c0bd e1a6 acbd 0be0 d73d c4cd bd3c
000000d0: edae f43c fc41 4d3c e81f 89bd d218 d83d
000000e0: c75c 98bd 2dd8 0e3e 299e 21bd 0e2f 88bc
000000f0: 0c00 dabd 246b 73bd f76f 97bd c666 5ebd
00000100: d575 6b3d 6dfa 17bd 2623 92bc 454f 983d
00000110: 8a57 9fbd e17d 4abb b71b 193d f90d dc3d
00000120: 7128 4ebd 2b81 c0bb 0ba2 adbd 569b 873b
00000130: 632e 153e 16e1 ad3d 6474 b8bd 4e94 c53d
00000140: e26f 8cbd 3bc1 0e3d 89fc c73c 7960 f53e
00000150: 6a74 21bb c6df 2fbb b3c1 bc3d a913 d9bb
00000160: 2439 b73d adce 613d 3dfe b53c 2ddf 25bd
00000170: f950 c2bd 9509 ddbc ab0e dc3e b55a 02be
00000180: c849 dabc 191a 21bd e429 c23d 13f5 35bc
00000190: 2abe 4e3d 8944 2abd bcd9 db3b 57c5 ffbc
000001a0: e1d2 a23d 9f5a 653c 82c8 3cbd c116 903d
000001b0: 3589 863d 6b3a a5bd fc52 9c3c fd94 063d
000001c0: 0bff fd3c b461 423d 169a f43e 83da 3a3d
000001d0: 17e3 06bd e819 c43d 762a 0b3f 6464 4bbc
000001e0: 9798 d7bd 4f2b a6bc 0c9e 1d3d 1adc 80bd
000001f0: 64f9 5ebd d15a 333d a7c7 bdbd a83a 75bc
-0.01692654 -0.05154761 0.07523243 0.064483784 0.015417799 -0.025797963 0.4611054 -0.054855272
-0.03967636 0.054378062 0.0078070606 -0.017829658 -0.05368019 0.017654656 0.025833882 -0.09936941
0.041451566 -0.034414563 0.019888392 0.060716804 0.064877845 0.02555487 0.059425093 -0.1370589
-0.024011835 -0.035992898 0.07347517 0.084425494 0.059748195 -0.047521524 -0.011857004 0.09087191
0.06642246 0.26088256 0.034161594 -0.06875365 0.12990625 -0.09184445 0.08961247 0.102323644
-0.06301398 -0.011460844 0.04857151 0.029628 0.060850117 -0.0523867 0.029531589 0.097198516
-0.09400774 -0.08430267 0.1054078 0.023169406 0.029868567 0.012527939 -0.06695539 0.10551609
-0.07439571 0.13949652 -0.039457474 -0.016624 -0.1064454 -0.05942835 -0.073944025 -0.05429723
0.05748542 -0.03710406 -0.017839026 0.074369945 -0.077803686 -0.0030897784 0.037379947 0.107448526
-0.050331537 -0.005874773 -0.08478173 0.0041383905 0.14568476 0.08490197 -0.09006575 0.096474275
-0.068572775 0.034852248 0.02441241 0.47925165 -0.0024636039 -0.002683626 0.09216633 -0.006624658
0.089464456 0.055128742 0.022215957 -0.04049604 -0.094881006 -0.026982108 0.4297994 -0.12729914
-0.02664651 -0.03933153 0.09480646 -0.0111057935 0.050474323 -0.041569266 0.0067093056 -0.031222029
0.07950378 0.0139986565 -0.046089657 0.0703559 0.06569139 -0.08067783 0.019082539 0.03285693
0.031005403 0.04745646 0.47773808 0.045618545 -0.032931414 0.09575254 0.54361665 -0.012414072
-0.10527151 -0.020284323 0.038480803 -0.06291981 -0.054437056 0.04378778 -0.09266596 -0.014967598

fc.4.weight f4 [128, 128]
00000000: a362 fd3d 4fe9 593c 7b8f 953c 2577 823d
00000010: 8580 b33d eb5d 223d 4bc5 f1bd 39dc dfbb
00000020: 4d98 173d d638 cf3d e85a ccbb ab15 d53c
00000030: 7452 b23d 990b 7ebc 4e07 523c 83b6 26bd
00000040: f7c5 6c3d 4cf9 813d 773f 29ba 49f9 f13d
00000050: cf99 e13d 6162 023e b999 6e3d dd88 c23d
00000060: 2940 833c 59ea 35bd 06aa 933d 2a1c e63d
00000070: 6f5f 1b3b 7abd 97bc 7f1c 8e3d 2e1b d13c
00000080: ce95 ea3d 9f52 7abd 4905 2fbd a603 8dbd
00000090: 6fb4 23bd ba6f e2bc 2233 f539 bd87 863d
000000a0: 5a96 6b3d cce0 48bd 8c52 883c 7bf9 2abd
000000b0: 88af f53d 3fff 0e3c 1cfb 603b f55e de3d
000000c0: 0e8b 8abc a4d8 703d 4dea f33d 2cfa d33b
000000d0: dc80 41bd 7e47 543d 2fe6 a4bc 5301 7e3c
000000e0: c609 843d 7cf8 3fbd 4a01 debc 909a 8d3c
000000f0: c771 8c3d 4cb5 c53d b107 363c be63 35bc
00000100: 71b4 b3bb 88ad 903d 2ca2 773d 07a1 103c
00000110: 3f86 933d 37d1 f7bc f23b db3c 7c54 a43c
00000120: d5a7 33bd bd36 823d 2128 88bd 6106 b93d
00000130: 0b2a a73d 617c 0cbd 9e6c 3f3c 2030 753d
00000140: 13c2 0a3d a822 213d 7abb c83d e0e9 e9bc
00000150: 4e6f 363c 1ab4 c03d 7e4a 273d bd31 7f3c
00000160: 29b5 f33d 813c 75b9 1de6 6c3c de72 2b3d
00000170: dfa8 18bd aaaf c53c 9119 80be 13dc 713d
00000180: acf9 fa3c ccc6 ebbc 9854 46bd 09c4 683d
00000190: a517 743d 1288 d4bc 30d9 17bd e08e ec3c
000001a0: a337 d73a f053 81bc 3bf7 0cbc f010 93bc
000001b0: 237e 463d 8936 1abd 6f7b 09bd 46c2 bb3d
000001c0: 2987 de3d e1ff 513d 923d 4cbe c32b 34bd
000001d0: 06b1 e13d 8af0 943d fdd1 5ebe fb02 9d3d
000001e0: e360 2abd 5ad0 533d cc79 a53d 3fb2 7f3d
000001f0: e7d5 8cbb 5333 ec3d 4969 c33d 15ee 703d
00000200: e0a6 563c 24e1 8d3d 70bf 903d 83a4 60bd
00000210: d2e3 0b3d 22a3 f73c 4e0a acbd aeb1 ce3d
00000220: 9f9e ce3d 76e8 c43d 309b af3c 9f11 77bc
00000230: f580 19bc 3d1e fe3d a9da ee3d 728b 7e3c
00000240: d322 823c da20 e83c e510 27bd b152 20bd
00000250: 9cf0 5a3d e55a 13bd 539b 303d 96e4 d33d
00000260: 1f12 583d 4f64 cf3d 4abb efbc 1d70 5a3c
00000270: b94e 3cba b455 3fbd 5c28 f33d 425f e33d
00000280: 28ed a43d b44e dc3d 687c 0d3d 1f77 8fbd
00000290: fea9 1dbd eb49 f9bc f0f7 3f3d cfc2 31bd
000002a0: 809b 59bc 994f fd3c 6e24 d43d 231e ff3d
000002b0: 4841 1dbd f968 143d 147f 8a3d d092 19bd
000002c0: d156 503d 9597 84bd 586c 1d3d 65e5 ac3d
000002d0: b366 9c3d 06ad 1cbc 6dba 2f3d e0ae 423b
000002e0: 7042 ecbb 78c9 7a3d 8652 123d 644f 2abd
000002f0: 8823 f83d 03c4 c3bc d236 363d 09b7 c83d
00000300: ff48 4b3d ec04 e53c a7b4 9b3d bb67 90bd
00000310: 787f 5e3d aa90 b33c 8e06 3e3d db58 c83d
00000320: 8edb 4e3d 2525 f53b 038b 87bd 214e 06bd
00000330: 3a15 923c 7e39 b93d 9523 04bc 460f 25bd
00000340: 62a7 833d 3ee0 903d 0adb 313d 8590 a63b
00000350: bd41 c83d ed63 bb3d 8237 d6bd db6c 91bc
00000360: 803d b13b 7310 52bc 036d 9c3d 0893 1dbc
00000370: 789e 27bd 2ab3 e43a 2b29 83be 46ce 383d
00000380: fc05 403d 2494 3d3d cf22 7f3d f3d5 e13d
00000390: d838 213d 840f c13d 1e2f 083a 35a4 3abd
000003a0: c63d df3d d92e 213d 2281 903d fae8 58bc
000003b0: 24cd 973d 35d2 883d 00c3 953d b062 33bd
000003c0: cbee 10bd bcde c3bb bb08 01be c655 f73d
000003d0: d275 893d 2f13 063d 6fdf 3abe 1341 c63d
000003e0: d9e3 8a3d b856 78bc 76d0 b83c a8e6 a23c
000003f0: 7203 62bd 53af c23d 0316 3abd 94fd 7e3d
0.12372329 0.013300254 0.018256893 0.06370381 0.087647475 0.03964035 -0.11805209 -0.0068316725
0.03701048 0.101182625 -0.006236423 0.026011309 0.08707133 -0.015505695 0.012819124 -0.0407014
0.05780598 0.06346378 -0.00064562954 0.118151255 0.11015665 0.12732841 0.05825207 0.09498761
0.016021805 -0.044412944 0.07210164 0.112358406 0.0023708006 -0.018522967 0.06939029 0.025525656
0.11454354 -0.06111395 -0.04272965 -0.068854615 -0.039966997 -0.027641166 0.00046768138 0.06568859
0.057516433 -0.049042508 0.016640924 -0.04174183 0.119963706 0.008727848 0.003432936 0.10857955
-0.01691201 0.058800355 0.11909924 0.006469032 -0.04724203 0.051825993 -0.020129291 0.015503245
0.06447177 -0.046867833 -0.027100224 0.017285615 0.06857639 0.0965372 0.011110232 -0.011071144
-0.005484157 0.070643485 0.060457394 0.008827454 0.0720334 -0.030251129 0.026761983 0.020059817
-0.04386123 0.06358097 -0.06648279 0.0903442 0.08162316 -0.034298304 0.011683611 0.05986035
0.03387649 0.03933969 0.09801383 -0.028553903 0.011134936 0.09409352 0.040842526 0.015575823
0.11899788 -0.0002338756 0.01445916 0.041857593 -0.037270423 0.024131615 -0.25019506 0.05904777
0.030636631 -0.028781317 -0.04842052 0.05682758 0.05959286 -0.02594379 -0.03707236 0.028876722
0.0016419779 -0.015787095 -0.008603866 -0.017952412 0.048460137 -0.037649665 -0.03356498 0.09167914
0.108656235 0.051269416 -0.19945362 -0.043987047 0.11020093 0.07272442 -0.21759792 0.07666584
-0.041596305 0.05171237 0.080798715 0.062425848 -0.00429796 0.11533227 0.09541566 0.058820803
0.01310131 0.06927708 0.07067764 -0.05484439 0.034152813 0.030229155 -0.08400403 0.100924835
0.10088848 0.09614651 0.021436304 -0.015079885 -0.009369125 0.12408111 0.116628 0.015536176
0.015885746 0.028335977 -0.040787596 -0.03914136 0.05345212 -0.035975356 0.04311688 0.10346334
0.052751657 0.10126554 -0.029264111 0.013332394 -0.00071833614 -0.046712592 0.11872932 0.11102153
0.080530465 0.10757199 0.03454247 -0.070051424 -0.038492195 -0.030430755 0.04686731 -0.043398675
-0.013281703 0.030921744 0.10358511 0.1245692 -0.038392335 0.036232922 0.067625195 -0.037493527
0.050864045 -0.064742245 0.038433403 0.08442191 0.07636776 -0.009562736 0.0429024 0.0029706284
-0.0072100684 0.06122729 0.03572323 -0.04157962 0.12116152 -0.023897177 0.044485874 0.09800536
0.04963016 0.027956448 0.07602816 -0.07051035 0.054320782 0.021919567 0.04639297 0.09782573
0.050502352 0.0074812346 -0.06618311 -0.032789353 0.017832387 0.09044169 -0.008065124 -0.04029777
0.0642841 0.07074021 0.043421783 0.005083146 0.097781636 0.09149919 -0.10459806 -0.017752102
0.0054089427 -0.012821305 0.0763798 -0.0096175745 -0.040922612 0.0017448415 -0.25617346 0.045118593
0.046880707 0.046283856 0.062289055 0.11027136 0.03936085 0.094267875 0.0005195009 -0.045566756
0.10900454 0.039351318 0.0705588 -0.01323914 0.07412174 0.06680719 0.07312584 -0.043795288
-0.03538398 -0.0059774797 -0.12600987 0.12076907 0.067119256 0.03273314 -0.18249296 0.09680381
0.0678174 -0.015157394 0.02256034 0.019885376 -0.055179067 0.09506097 -0.04543115 0.06225355

fc.4.bias f4 [128]
00000000: d892 d43d 36fd 423a ac4e 6bbe de28 243f
00000010: 0c9c 4cbd a428 8a3d a1f3 91bd 27a6 b03c
00000020: 07f1 223c feec 34be 4a19 e93c a270 ac3e
00000030: d360 653c ec8e d13c 334e a33d 9ed7 70bd
00000040: e4a8 ad3d d773 663d 8847 e8bc ba47 2abb
00000050: 051c 4cbd c245 9bbd addb f33c b9c7 c7bb
00000060: 7f39 91bd be16 523d d829 f8bc c9a1 003f
00000070: 9a65 8abd 9477 c73d 2454 f53c 93fa 323b
00000080: 2ccc 5ebe 2dbd 6e3d 30b7 39bd a0bd 6e3d
00000090: 3815 a9bc 1b59 abbd fb5c 14bd df02 93bd
000000a0: f8a4 903d 259d d63d 11bd 3c3b e852 613d
000000b0: f2b7 9ebc c68d a63d f763 87bb b2f6 20bd
000000c0: 8a8b f33d 0eb6 343b 2ab8 323d 2c4d e23b
000000d0: 1594 153c 11d4 2a3d 3924 58bd 0e40 b63d
000000e0: 8805 a8bd a93d 353c c7ae 7dbd b664 ab3d
000000f0: ff03 8bbc 4b39 783d 990b 7dbd a112 d43d
00000100: 88a2 a03e 4165 5d3c 1a24 f13c 2932 9fbb
00000110: ab7d 8fbd 1cf3 203f fa7f 1dbe da3d b8bb
00000120: 1f77 8e3d 2d5f b43d 413c 903d ffb8 94bc
00000130: 1754 b93d c84b cebc 886f 343d 74b4 c73d
00000140: 1e47 e53d 4a1d 5abd 2d83 053d 122e 863d
00000150: ae08 1dbd 36e0 293f ce61 6cbd 7fb0 b63d
00000160: 3fb2 0e3d 974c 4f3d 4f1e d8bc 8081 2d3b
00000170: 913d 803e 3649 d43d 9dbe b4bc 38a0 a63d
00000180: 1582 563d e7e3 85bd 7aa4 08bc c9fa 12be
00000190: b6e8 19bd 33a3 c73d 3a96 513e ed3f b13e
000001a0: 56f6 5a3c f0e1 d73e 1d22 79bd b2d1 b2bd
000001b0: e2e3 703d 656e 043f c237 983d 03b7 db3d
000001c0: 1236 a23a cfc8 943a 41b4 f4bc f123 b93c
000001d0: 38d5 343d 1216 fbbd 3e17 563f d28c bf3d
000001e0: 2834 9e3d 0a0e 86bc 3a20 84ba e9df c3bc
000001f0: a0aa 853d 18fa a83d de91 a83c 97b9 d3bd
0.10379571 0.0007438244 -0.2297923 0.6412486 -0.049953505 0.06746033 -0.07126547 0.021563603
0.009945161 -0.1766853 0.028454442 0.33679682 0.0140001355 0.025580846 0.079739 -0.05879938
0.08479479 0.056262817 -0.028354421 -0.0025982694 -0.04983141 -0.075816646 0.029767836 -0.006096807
-0.07091045 0.05129122 -0.03029339 0.50246865 -0.0675766 0.097396046 0.029947348 0.0027309998
-0.21757573 0.05828588 -0.045340717 0.05828631 -0.02064 -0.08366605 -0.036221486 -0.07178282
0.07062715 0.10479192 0.0028799216 0.055010706 -0.019374821 0.0813251 -0.00413179 -0.039297767
0.11891849 0.0027574333 0.043632664 0.0069061723 0.009129544 0.04170615 -0.05276892 0.08898936
-0.0820418 0.011062064 -0.06193426 0.083688185 -0.016969679 0.060601514 -0.06177864 0.10355116
0.31374002 0.01351291 0.02943616 -0.0048582745 -0.07006391 0.62870955 -0.1538085 -0.0056226077
0.06956314 0.08807216 0.070427425 -0.01815462 0.09049242 -0.02518262 0.044051677 0.097512156
0.11195205 -0.05325059 0.032595802 0.06551756 -0.038338356 0.66357744 -0.05771046 0.08920383
0.034837957 0.05061015 -0.02638164 0.0026474893 0.2504697 0.103655264 -0.022063548 0.08136028
0.05237015 -0.065376095 -0.0083399955 -0.1435348 -0.037575446 0.09747925 0.20467463 0.34619084
0.013364395 0.42164564 -0.06082355 -0.087314025 0.058811076 0.5173095 0.0743251 0.10728266
0.0012375733 0.001135135 -0.029871108 0.022600146 0.044148654 -0.12260069 0.83629215 0.09353031
0.07724792 -0.016364116 -0.0010080405 -0.02391048 0.06526685 0.082508266 0.020577367 -0.10338133

fc.6.weight f4 [1, 128]
00000000: 6206 5abd 99ed ffbd f285 51bc d0dd a43e
00000010: 7634 3f3d 9c3f c4bd 6ade 93bb c8f4 04be
00000020: 4ee0 00be 18ba d4bb e43d 52bd c2b6 883e
00000030: 3bc4 ccbd 2752 043c 292c fdbd 316b 353d
00000040: bac7 f6bd 640e 83bd 6acc 2a3d 449f 7ebd
00000050: e525 f53c e2d0 213c d38f e9bd be66 76bd
00000060: 1c12 67bc d8be bdbd a4e0 c93d 8bdc 3e3e
00000070: 0173 83bc 8313 b0bd 6cca fbbd 8e03 b3ba
00000080: 73f6 80bd 43d0 56bd e924 d1bd 2dc3 873d
00000090: 0ac6 03be 461f 6c3c e19e 913d 904c 00bd
000000a0: 8db6 3c3d fcf0 c1bd 0b98 713d 8cf0 b4bd
000000b0: cf17 0ebd 7b44 cdbd 52c3 ecbd 393f a8bd
000000c0: 2d6e 48bd ee4f 183d 96d4 e7bd 714a 42bd
000000d0: 24b8 1c3d 67bc cbbd 658d 263d 2ac7 3abd
000000e0: 0793 14bb 9bc7 733d 50a5 99bc 8ccf f8bd
000000f0: 34a6 f83c ac2a 813c d3c7 d1bb 6e3c b1bd
00000100: efe3 603e 01ea 4ebd 4f0f f03c ed7f 6e3c
00000110: 9e6e 42bd 62a5 9e3e 78b6 9d3b 81a8 8d3b
00000120: b455 053e 2848 d2bd 7af3 f4bd cae3 75bd
00000130: 7d62 e8bd 58cd fabd 149a 893a 31ef febd
00000140: a913 d6bd 0009 883c 8937 bebd d318 743d
00000150: e7ec 83bd a44e 013f a5e5 fabd 8ebd b5bd
00000160: f989 d1bd 1a90 98bd 7ab3 f83a a8c8 54bd
00000170: 5592 a43e 4571 4dbd ffaf d5bd e7af ddbd
00000180: 803c 45bb 99ef ac3c 05d0 57bd d3f9 dfbd
00000190: 92b5 edbc 650e 83bd 79ef 653e 6999 823e
000001a0: 62d5 633b f17c 303e 77dc 9abd 1088 e13c
000001b0: 36f1 39bd 9e63 613e e2ad 753d 25fb 44bd
000001c0: fcea f6bd b2aa d23c 8c89 60bd 7832 d2bd
000001d0: eb9f babd 0eaf dc3c 32d2 cb3e 5ca1 66bd
000001e0: cec3 d2bd 96e0 00be 5944 70bd c0d2 7dbd
000001f0: db7a c2bc 034a d7bd 206e e13b 33ca 7abc
-0.053228743 -0.1249649 -0.012788283 0.3220048 0.04668089 -0.09582445 -0.004512598 -0.12984002
-0.12585565 -0.0064919107 -0.051328555 0.26701933 -0.099983655 0.008076227 -0.123619385 0.04429168
-0.120498136 -0.06399229 0.04169885 -0.062163606 0.029925296 0.009876462 -0.114043854 -0.060156576
-0.014103439 -0.09264916 0.098573 0.18638818 -0.01604605 -0.085974716 -0.12294468 -0.0013657676
-0.062970065 -0.052444708 -0.10212118 0.06629024 -0.12868515 0.014411753 0.07110382 -0.031323016
0.04607253 -0.09469792 0.05898289 -0.08834943 -0.034690674 -0.10022827 -0.11560692 -0.08215184
-0.048933197 0.037185602 -0.113198444 -0.047434274 0.038261548 -0.09948044 0.040662188 -0.045600094
-0.0022670643 0.05951653 -0.018755585 -0.121489614 0.03035269 0.015767418 -0.0064019947 -0.08654104
0.2196195 -0.050516132 0.029304175 0.014556867 -0.047468774 0.30985552 0.0048130117 0.0043230657
0.13020974 -0.10267669 -0.11960502 -0.06003169 -0.1134691 -0.122461975 0.0010498189 -0.12447966
-0.104529686 0.016605854 -0.09287936 0.059593987 -0.0644167 0.5051062 -0.122508325 -0.08874045
-0.10231394 -0.0744936 0.0018974387 -0.051949173 0.32142892 -0.05015685 -0.10433959 -0.10824566
-0.0030095875 0.021110343 -0.052688617 -0.10936322 -0.029017244 -0.0639923 0.22454633 0.25507668
0.0034764637 0.17235161 -0.075615816 0.0275307 -0.045396052 0.22010657 0.05998028 -0.048091073
-0.120565385 0.02571616 -0.054818675 -0.102635324 -0.09112533 0.026938941 0.39808804 -0.056306228
-0.10291253 -0.12585673 -0.05865893 -0.061968565 -0.023740223 -0.105121635 0.006879583 -0.015306997
